results_sirst/S_IoU-0.7783_nIoU-0.7554_Fa-0.00000550_Pd-0.99074.pth (torch, 553878 bytes, 814 tensors)

encode_modules.0.conv_in.conv.weight f4 [8, 3, 3, 3]
0	0xbe43e76d	-0.1913125
1	0x3c3f4e17	0.011676333
2	0xbe00704d	-0.1254284
3	0x3e274b85	0.16337402
4	0xbdc71018	-0.097198665
5	0xbe262e69	-0.16228642
6	0x3e283b9d	0.1642899
7	0x3b9fa60e	0.00487209
8	0x3e2fdd80	0.1717434
9	0xbdcdc172	-0.100466624
10	0xbc4cd7ac	-0.012502592
11	0xbb3f2ada	-0.0029169829
12	0xbe3e8c66	-0.18608245
13	0xbd15be07	-0.036558177
14	0xbb09e5ba	-0.0021041469
15	0xbd4f7de2	-0.05065716
16	0x3d93bb30	0.072134376
17	0x3cbfa3d9	0.023393558
18	0xbc6e810b	-0.014557133
19	0xbd826458	-0.06366795
20	0x3dcabce3	0.098993085
21	0xbe50c0c0	-0.20386028
22	0x3d7d6419	0.06186304
23	0x3e27b2ad	0.16376753
24	0x3de2ec2f	0.11080205
25	0x3d9d3d2e	0.07677685
26	0x3d961be9	0.07329542
27	0x3d4d44a5	0.050114293
28	0xbe51ed16	-0.20500597
29	0xbddabef9	-0.106809564
30	0xbdc02de1	-0.09383751
31	0x3d562f66	0.052291296
32	0x3e0e283e	0.13882539
33	0x3e16aab0	0.1471355
34	0x3e1a2af9	0.15055455
35	0x3d1c04a2	0.038090356
36	0x3dcd4dba	0.10024591
37	0xbe63fa3a	-0.22263423
38	0x3cf05dc6	0.02934159
39	0xbd3c4351	-0.045962635
40	0x3df81ca5	0.121148385
41	0xbdc63340	-0.09677744
42	0x3e375237	0.17902456
43	0x3df8f41c	0.12155935
44	0x3d282914	0.0410548
45	0xbe433f22	-0.19067052
46	0xbd1bc837	-0.038032737
47	0xbe53d446	-0.20686445
48	0x3dde9adb	0.1086938
49	0x3e2e0a7d	0.16996188
50	0x3d7c26b0	0.061560333
51	0xbe1bcc15	-0.1521457
52	0x3e00ceb2	0.12578848
53	0xbd0d1d01	-0.03445149
54	0x3daf1fac	0.08550963
55	0x3e273159	0.16327418
56	0xbddaf4a6	-0.10691194
57	0xbdefa061	-0.11700512
58	0xbde10e63	-0.10989072
59	0x3e3a113f	0.18170641
60	0xbe1255f1	-0.14290597
61	0xbd81837f	-0.06323909
62	0xbdccdfe0	-0.10003638
63	0x3e52abe3	0.20573382
64	0xbd22d2db	-0.03975187
65	0x3d1667af	0.036719974
66	0xbe1d15f5	-0.15340407
67	0x3e036e0d	0.1283495
68	0x3d1d8faa	0.038467087
69	0xbdb69579	-0.089152284
70	0xbe504577	-0.20338999
71	0xbd80fd30	-0.06298292
72	0x3d1d1666	0.03835144
73	0xbde4136b	-0.11136516
74	0x3e524c24	0.20536858
75	0xbe0509bf	-0.12991999
76	0xbcda63fd	-0.026659006
77	0x3e05a366	0.13050613
78	0x3cb433f2	0.021997426
79	0xbdc33dfd	-0.09533308
80	0xbbd703e1	-0.0065617417
81	0x3df1731d	0.11789534
82	0xbd8a2c7a	-0.067467645
83	0xbcfd81d5	-0.030945698
84	0x3e449682	0.19198039
85	0xbe49786c	-0.19674844
86	0xbe4e061e	-0.20119521
87	0xbd507359	-0.050891254
88	0xbd1a9108	-0.03773597
89	0xbcab1011	-0.020881684
90	0x3d7bbdc0	0.061460257
91	0x3e0f3ef7	0.13988863
92	0x3d4d6857	0.050148334
93	0x3d5c4f9a	0.05378685
94	0xbd57e91c	-0.052712545
95	0x3d00fdf1	0.031492177
96	0x3d8cbcc1	0.068719395
97	0xbdc28941	-0.09498835
98	0xbd5df567	-0.054189112
99	0x3e577f58	0.21044672
100	0xbd845ff4	-0.06463614
101	0x3ca5eb94	0.020253934
102	0xbe0b32cd	-0.13593598
103	0x3d5e7b45	0.054316778
104	0x3d43eea6	0.047835015
105	0x3d39a785	0.045325775
106	0xbd980388	-0.074225485
107	0xbdea8dec	-0.11452851
108	0xbddc35a7	-0.10752421
109	0xbe0a499c	-0.13504642
110	0xbd970360	-0.073736906
111	0x3e0f929a	0.14020768
112	0xbd1e2080	-0.038605213
113	0xbcf601dc	-0.030030183
114	0x3dc470de	0.0959184
115	0xbded57e5	-0.1158903
116	0x3dda2636	0.106518194
117	0xbd4230b7	-0.04740974
118	0x3e0cedc9	0.13762583
119	0x3dd200cd	0.10254059
120	0xbe29a392	-0.16566303
121	0x3dc3fb42	0.09569408
122	0xbe4fb957	-0.20285545
123	0xbe80ff43	-0.2519475
124	0xbd84bab1	-0.06480921
125	0x3d110860	0.035408378
126	0x3cba250d	0.022722745
127	0x3dd30321	0.10303331
128	0x3e043cdc	0.12913841
129	0xbd114cf1	-0.035473768
130	0xbd86068b	-0.06544217
131	0x3e297833	0.16549759
132	0xbcb27c69	-0.021787839
133	0xbe1e915d	-0.15485139
134	0x3dc28794	0.09498516
135	0xbcd65f53	-0.026168501
136	0x3da6191f	0.0811026
137	0x3e0c891f	0.13724183
138	0x3d92f593	0.07175746
139	0xbd8bab80	-0.068198204
140	0xbe43f2e5	-0.19135626
141	0x3d8383a0	0.0642159
142	0x3de3e660	0.11127925
143	0xbd935727	-0.07194357
144	0xbdfa8def	-0.12234103
145	0x3dcc7c77	0.09984677
146	0x3d795a5b	0.060877185
147	0xbdb0c22c	-0.08630785
148	0xbc845b54	-0.01615683
149	0xbe26b21a	-0.16278878
150	0xbd4ef9f9	-0.05053136
151	0x3e458e25	0.19292505
152	0xbe3ce3e0	-0.18446302
153	0x3d8f188c	0.06987104
154	0xbd06a443	-0.032871496
155	0x3cc6eff6	0.024284344
156	0x3d860af3	0.06545057
157	0xbe208752	-0.1567662
158	0xbe11c738	-0.14236152
159	0x3e042c17	0.12907444
160	0xbe17d799	-0.14828338
161	0x3e4ab002	0.19793704
162	0xbe4c1d01	-0.19932939
163	0xbd2bd696	-0.041952692
164	0xbda24300	-0.079229355
165	0x3dc8d4a6	0.098061845
166	0x3e4bfc4c	0.19920462
167	0xbd2256e5	-0.03963365
168	0x3b9d694a	0.004803811
169	0xbde5a408	-0.11212927
170	0x3d2c0120	0.04199326
171	0xbe215edc	-0.15758842
172	0xbe2bf442	-0.16792396
173	0xba81c183	-0.000989959
174	0xbc979f2d	-0.018508518
175	0x3e50d415	0.20393403
176	0xbe0bdc92	-0.1365836
177	0x3e21b049	0.15789904
178	0x3d0c83df	0.03430545
179	0x3e036331	0.12830807
180	0x3dfc91e1	0.12332512
181	0xbe23177d	-0.15926929
182	0xbd0b23dc	-0.033969745
183	0xbcadd112	-0.021217857
184	0xbdc82e06	-0.09774403
185	0xbd1225c0	-0.035680532
186	0xbcef9464	-0.029245563
187	0x3ddab5aa	0.10679181
188	0xbe15930d	-0.14606877
189	0xbba8afa8	-0.005147893
190	0xbd3702da	-0.044680454
191	0x3d2ab716	0.04167851
192	0xbdfa7361	-0.12229038
193	0xbc921cc9	-0.017835991
194	0x3d71b377	0.05900904
195	0xbe0cd36d	-0.13752528
196	0xbd3ce6e1	-0.04611862
197	0x3e2145a0	0.15749216
198	0xbd587c49	-0.052852903
199	0x3e3f6f47	0.18694793
200	0xbdba37a1	-0.090926416
201	0xbb2fb36c	-0.0026809825
202	0x3e01fb0a	0.1269342
203	0x3e28615e	0.16443393
204	0x3c6a5c55	0.01430424
205	0xbe0e54af	-0.13899492
206	0xbe24a11a	-0.1607708
207	0x3e548cc9	0.2075683
208	0x3d27f322	0.041003354
209	0x3dd18a90	0.10231507
210	0x3dc86064	0.0978401
211	0xbdaee99c	-0.08540651
212	0xbe1c8dd4	-0.15288478
213	0xbdde40bd	-0.108521916
214	0xbcacace7	-0.02107854
215	0xbdfcec09	-0.12349708

encode_modules.0.conv_in.bn.weight f4 [8]
0	0x3f734d49	0.950398
1	0x3f8675bf	1.0504683
2	0x3f84a238	1.0362005
3	0x3f8159e8	1.0105562
4	0x3f828a82	1.0198519
5	0x3f7f64bc	0.99763083
6	0x3f7017cc	0.9378631
7	0x3f787546	0.97053945

encode_modules.0.conv_in.bn.bias f4 [8]
0	0x3d4f9d08	0.050686866
1	0x3e0c82bb	0.13721745
2	0xbce0cbe2	-0.027440969
3	0x3b3f01ad	0.0029145286
4	0xbcad0e4a	-0.021124978
5	0xbdb69664	-0.089154035
6	0x3b54a095	0.0032444347
7	0xbd50af85	-0.05094864

encode_modules.0.conv_in.bn.running_mean f4 [8]
0	0x3c131dd8	0.008979283
1	0xbd535960	-0.051598907
2	0x3d8bd815	0.06828324
3	0x3cc1c21c	0.023652129
4	0x3d6ccf92	0.057815142
5	0x3d06ea1b	0.032938104
6	0x3da12c24	0.07869747
7	0x3cc36603	0.023852354

encode_modules.0.conv_in.bn.running_var f4 [8]
0	0x3bdf7704	0.0068196077
1	0x3d7a9195	0.061173994
2	0x3dd15e1c	0.10223028
3	0x3c68a0a3	0.014198455
4	0x3d93cfd9	0.07217378
5	0x3cc80c42	0.024419907
6	0x3e07ef1a	0.13274804
7	0x3c64e465	0.013970469

encode_modules.0.encode_modules.0.conv.weight f4 [4, 8, 3, 3]
0	0x3c75a154	0.014992077
1	0x3d3d33bd	0.04619192
2	0xbd658bd5	-0.056041557
3	0x3d8d1a81	0.06889821
4	0x3cc710b6	0.02429996
5	0x3dc0af0d	0.09408388
6	0xbd9b6f29	-0.075895615
7	0x3b1a56da	0.0023550303
8	0xbc1444df	-0.009049623
9	0x3d3d3762	0.046195395
10	0x3df48ee6	0.11941318
11	0x3df05024	0.117340356
12	0x3d483f42	0.048888452
13	0x3d136e24	0.03599371
14	0x3d4f3230	0.050584972
15	0xbde5a8e9	-0.11213858
16	0x3d0979cd	0.033563424
17	0xbddeed84	-0.10885146
18	0xbd16a6ee	-0.03678029
19	0xbdc66507	-0.09687238
20	0xbe0201fe	-0.12696072
21	0xbd347e9a	-0.04406605
22	0xbdc560d6	-0.096376106
23	0xbd6402f2	-0.05566687
24	0x3d686bd2	0.05674345
25	0xbd2bb37e	-0.041919224
26	0xbcfb6669	-0.030688481
27	0xbdf53477	-0.119728975
28	0x3d5c699e	0.053811662
29	0x3dca1499	0.0986721
30	0xbdbdeafd	-0.09273336
31	0xbdf3e901	-0.11909676
32	0xbcb740d9	-0.022369789
33	0xbd727bc6	-0.05920007
34	0x3dcbd849	0.099533625
35	0x3e02f985	0.12790497
36	0x3d55ef80	0.052230358
37	0xbdd35a52	-0.103199616
38	0x3d725aae	0.05916851
39	0xbd4c34a3	-0.049854886
40	0xbdc2cbd0	-0.095115304
41	0xbe092a63	-0.13395076
42	0x3d210fb3	0.039321613
43	0xbd357d9a	-0.044309236
44	0xbddca27c	-0.10773179
45	0xbde33d6b	-0.11095699
46	0xbd02a978	-0.0318999
47	0xbc6eec8e	-0.014582766
48	0xbdd4ad69	-0.10384638
49	0x3db888d7	0.09010475
50	0x3d52dfbc	0.0514829
51	0x3d75462f	0.059881385
52	0x3dcd2f12	0.100187436
53	0x3d117312	0.03551013
54	0x3e0c9b09	0.13731016
55	0x3ce06d46	0.027395856
56	0x3d0f84e8	0.03503886
57	0x3dab7147	0.08371215
58	0xbd78f6a2	-0.060782082
59	0x3b7b3355	0.0038330157
60	0xbd4fb674	-0.05071111
61	0xbc062ae9	-0.0081889415
62	0xbc028709	-0.007966765
63	0x3bf79a32	0.0075562233
64	0xbd163613	-0.036672663
65	0xbdcc4a3f	-0.09975099
66	0xbd9bd264	-0.07608488
67	0x3d3e3f9c	0.04644738
68	0xbdc3b57e	-0.09556101
69	0x3d91e3f9	0.071235605
70	0x3d1e91b5	0.038713176
71	0xbca1e1b4	-0.019760944
72	0x3cb89894	0.022533692
73	0xbe101f89	-0.1407453
74	0x3bc2b9f8	0.0059425794
75	0xbdb16760	-0.08662295
76	0xbc8ac5ce	-0.016940024
77	0x3ad1b721	0.0016000011
78	0xbdb29067	-0.08718949
79	0xbdeb60ae	-0.114930496
80	0x3dda9838	0.10673565
81	0xbd9b472c	-0.07581934
82	0xbc501e7e	-0.012702582
83	0xbcaf66b1	-0.021411272
84	0xbd0d6e64	-0.034529105
85	0xbd84bd46	-0.064814135
86	0xbbab344d	-0.0052247406
87	0x3cd6045b	0.026125124
88	0x3ce13cc4	0.027494796
89	0xbd29f652	-0.041494675
90	0x3cb7fa8d	0.02245834
91	0xbdb82b6b	-0.08992656
92	0xbd66d1ad	-0.056352306
93	0xbdbfa8c3	-0.093583606
94	0xbdbab47d	-0.09116457
95	0x3da569bf	0.0807681
96	0x3bf0de31	0.007350706
97	0xbd05d790	-0.03267628
98	0x3d9a55c6	0.07535891
99	0x3c99d1b1	0.018776746
100	0xbdf5c536	-0.120005056
101	0xbe4712f7	-0.19440828
102	0xbc8a97af	-0.016918031
103	0xbd5e29b8	-0.054239005
104	0xbdf8cf18	-0.12148875
105	0xbda6798c	-0.08128652
106	0x3d602614	0.054723814
107	0xbdf092cc	-0.11746749
108	0x3cf434eb	0.02981039
109	0xbd07a274	-0.03311391
110	0x3c4742ae	0.012161894
111	0x3d4646c0	0.048407316
112	0x3d941929	0.072313614
113	0xbdeb9858	-0.11503667
114	0xbce321f5	-0.027726153
115	0xbdd1327a	-0.10214706
116	0xbd31e14d	-0.043427754
117	0xbdc6cd5c	-0.09707138
118	0xbc5f093d	-0.013613042
119	0xbdeb99bb	-0.11503931
120	0xbd09e1c3	-0.03366257
121	0xbdeb8eae	-0.11501823
122	0xbe3c6eb5	-0.18401606
123	0x3d155893	0.036461424
124	0xbe1cb8f0	-0.15304923
125	0xbdcce919	-0.10005397
126	0xbd0ad7fc	-0.033897385
127	0xbd31f6f7	-0.043448415
128	0xbe11367f	-0.14180945
129	0xbd4274c8	-0.047474653
130	0xbb0ac554	-0.0021174746
131	0xbe33060d	-0.17482777
132	0x3cf6c0dc	0.03012126
133	0xbd89bd2e	-0.06725536
134	0x3d3db167	0.046311762
135	0x3cb2f059	0.021843122
136	0xbd806f6d	-0.06271253
137	0x3d62a95a	0.055337287
138	0x3d024ef2	0.03181357
139	0xbd18b674	-0.037283376
140	0xbdedd309	-0.116125174
141	0xbb84dc46	-0.004054579
142	0xbd547891	-0.051872794
143	0x3b80434f	0.003914274
144	0xbd5ceed6	-0.05393871
145	0xbd910100	-0.07080269
146	0x3d2c6b0b	0.04209427
147	0x3d7577a3	0.059928548
148	0xbda0677c	-0.07832238
149	0xbdae68d3	-0.085160874
150	0x3d4b6128	0.049653202
151	0x3c965288	0.0183499
152	0xbd9c3d4d	-0.0762888
153	0x3e1cd69a	0.15316239
154	0x3e267467	0.16255341
155	0x3d9eba8f	0.07750427
156	0x3e209d80	0.15685081
157	0x3d43de75	0.047819573
158	0x3d10b530	0.035329044
159	0x3cb87e65	0.022521207
160	0x3e17d498	0.14827192
161	0xbd3ce9b2	-0.046121307
162	0xb7883f95	-1.6242071e-05
163	0x3c4c3eb9	0.012466126
164	0xbdb64fa6	-0.089019105
165	0xbdc44b0b	-0.09584626
166	0x3ad466c1	0.001620494
167	0xbd4eefc5	-0.05052163
168	0xbde5f375	-0.11228076
169	0x3dead34c	0.11466083
170	0x3b83376a	0.0040044086
171	0xbd9c06d5	-0.076184906
172	0xbc3347eb	-0.01094244
173	0x3d861d21	0.06548525
174	0xbd435f1e	-0.047698133
175	0xbc8c9816	-0.017162364
176	0x3daf630a	0.08563812
177	0x3d4518fa	0.048119523
178	0xbd8cfc23	-0.06884029
179	0xbd49c028	-0.04925552
180	0x3dd8c026	0.105835244
181	0x3d070c0e	0.03297048
182	0xbdbabfb4	-0.09118596
183	0x3d6f3e2f	0.058408912
184	0x3b492a26	0.0030695288
185	0xbc69962e	-0.014256997
186	0xbd82f2ea	-0.063939884
187	0xbb618200	-0.0034409761
188	0xbdde23a6	-0.10846643
189	0x3db79fc7	0.08966022
190	0xbdece476	-0.11567013
191	0x3c972fde	0.018455442
192	0x3bb215d7	0.0054347324
193	0xbb71ea6e	-0.0036913413
194	0xbddb8475	-0.107186235
195	0xbdacd26b	-0.084385715
196	0xbd162dca	-0.03666476
197	0xbcc73538	-0.024317369
198	0xbdc50b16	-0.09621255
199	0xbda72284	-0.0816088
200	0xbce5829c	-0.028016381
201	0x3dad07d5	0.084487595
202	0x3c6737f3	0.01411246
203	0xbdedb07c	-0.11605927
204	0x3d1efc8d	0.03881507
205	0xbd70025c	-0.058596
206	0xbdd9208a	-0.106019095
207	0x3c8bd3d0	0.017068774
208	0x3d81f855	0.06346194
209	0xbd1298b1	-0.03579015
210	0x3d982f7d	0.07430933
211	0xbd840d56	-0.06447856
212	0xbdefa3ff	-0.11701202
213	0x3dfbd3e2	0.12296273
214	0x3db9db9e	0.09075092
215	0x3d4c419d	0.04986726
216	0xbdd91562	-0.105997816
217	0xbd33d440	-0.04390359
218	0x3e06e6ab	0.1317393
219	0x3cda18e5	0.026623199
220	0xbbe0d377	-0.006861146
221	0xbd44f89b	-0.04808865
222	0x3c4a841c	0.012360599
223	0xbdcd8d61	-0.100367315
224	0xbd06f566	-0.032948874
225	0xbdeaa706	-0.114576384
226	0x3d7ba123	0.06143297
227	0x3dd6ac09	0.10482032
228	0xbd079ccf	-0.03310853
229	0xbda0f765	-0.07859687
230	0xbd76849e	-0.060185067
231	0x3d3797b8	0.044822425
232	0xbdad91a5	-0.08475045
233	0x3dd278a5	0.10276917
234	0x3e2a8808	0.16653454
235	0x3df343d9	0.11878175
236	0x3e6f2485	0.23353775
237	0x3d13a336	0.036044322
238	0x3d78ce87	0.060743835
239	0x3d958561	0.07300831
240	0x3d9d313e	0.07675408
241	0xbd8d736d	-0.06906781
242	0x3e00a444	0.12562662
243	0xbc930d54	-0.017950691
244	0x3da411d7	0.08011215
245	0x3d3d3f4c	0.046202943
246	0x3d4a677c	0.049415097
247	0x3dcc6ac0	0.099812984
248	0xbd998d06	-0.07497601
249	0x3dcea4e8	0.10090047
250	0xbcf64073	-0.030060029
251	0xbe2ddd79	-0.16979016
252	0xbcc4560e	-0.023966815
253	0xbabc812d	-0.0014381759
254	0xbd5007f8	-0.05078885
255	0x3d9766eb	0.07392677

encode_modules.0.encode_modules.0.bn.weight f4 [4]
0	0x3f805596	1.0026119
1	0x3f6ef6e4	0.93345475
2	0x3f88c28f	1.0684375
3	0x3f8bc75b	1.0920213

encode_modules.0.encode_modules.0.bn.bias f4 [4]
0	0x3dc99921	0.0984366
1	0x3e0ef8f7	0.1396216
2	0x3da2a0ee	0.07940851
3	0x3daa2678	0.083081186

encode_modules.0.encode_modules.0.bn.running_mean f4 [4]
0	0xbe482d7d	-0.19548602
1	0xbf8bd2e1	-1.092373
2	0x3bf79a15	0.00755621
3	0x3e7a08f9	0.24417485

encode_modules.0.encode_modules.0.bn.running_var f4 [4]
0	0x3ea592cf	0.3233857
1	0x3fb5909c	1.4184756
2	0x3f3cd1dc	0.7375772
3	0x3e6b8ef6	0.23003754

encode_modules.0.encode_modules.1.conv.weight f4 [4, 4, 3, 3]
0	0xbd950937	-0.07277148
1	0xbdf34701	-0.11878777
2	0x3d6c8bb1	0.057750408
3	0x3da1e5ff	0.079051964
4	0x3c5adbb5	0.013358046
5	0xbda9fc86	-0.08300118
6	0xbe013e7a	-0.12621489
7	0x3dab9ba4	0.083792955
8	0x3e248bff	0.1606903
9	0xbd9dc713	-0.07703986
10	0x3d31c9c1	0.0434053
11	0x3e117d38	0.14207923
12	0xbda2547e	-0.07926272
13	0x3e1d358c	0.15352458
14	0xbc0d8561	-0.008637757
15	0xbce16352	-0.02751318
16	0xbcfb4ad8	-0.030675337
17	0xbd9edc3c	-0.0775685
18	0xbe3b7b82	-0.18308833
19	0x3d6a15a4	0.057149544
20	0x3d89fc04	0.06737521
21	0xbdbc20db	-0.09185954
22	0xbc825428	-0.01590927
23	0x3d871191	0.065951474
24	0xbd8518f3	-0.06498899
25	0x3c5eb919	0.013593935
26	0x3df642db	0.120244704
27	0x3d8cc33a	0.06873174
28	0xbd0ae086	-0.03390553
29	0xbe1d1751	-0.15340926
30	0xbde0a1e9	-0.10968382
31	0xbe1cd920	-0.15317202
32	0x3e037414	0.12837249
33	0x3e0e94ef	0.13924001
34	0xbe23deda	-0.1600298
35	0xbdcf0fae	-0.101104125
36	0x3da87401	0.08225251
37	0xbda1d0ad	-0.0790113
38	0x3b8f2c29	0.004369278
39	0xbc86675f	-0.016406713
40	0x3d2f0247	0.04272678
41	0xbdfb02ca	-0.12256391
42	0x3df562a1	0.119817026
43	0x3d37800f	0.04479986
44	0xbe0505c7	-0.12990485
45	0x3e13e724	0.14443642
46	0xbcdd948f	-0.027048377
47	0xbd462b6d	-0.048381258
48	0xbd6295e0	-0.055318713
49	0x3de1b22f	0.11020314
50	0x3de59c88	0.112114966
51	0x3dadf825	0.084945954
52	0x3dd44e36	0.1036648
53	0x3ddf8005	0.1091309
54	0xbde5a6f9	-0.11213488
55	0x3e08719c	0.13324589
56	0x3e237c25	0.15965326
57	0xbe1fcab3	-0.15604667
58	0xbdc83a48	-0.09776741
59	0xbe2d1e05	-0.16905983
60	0xbde3da03	-0.11125567
61	0x3e03762f	0.12838052
62	0xbcd4c202	-0.025971416
63	0xbe44a11e	-0.19202086
64	0xbe06cb39	-0.13163461
65	0xbd84731e	-0.06467269
66	0x3daeeb84	0.08541015
67	0xbd97fe5a	-0.074215606
68	0xbcbac5bc	-0.022799365
69	0xbdbf18c3	-0.09330895
70	0xbe33360f	-0.1750109
71	0xbe013945	-0.12619503
72	0x3e0b36bf	0.13595103
73	0x3e127f2b	0.14306323
74	0xbc800cf5	-0.015631178
75	0xbdd711e6	-0.10501461
76	0xbc41fe06	-0.011840349
77	0xbd0d43a4	-0.034488335
78	0x3ce074b4	0.027399398
79	0xbe0f51fb	-0.13996117
80	0xbdbeccea	-0.09316428
81	0xbe25e452	-0.16200379
82	0xbe1152a8	-0.14191687
83	0xbd34da22	-0.04415334
84	0x3e255afe	0.16147992
85	0x3e344fac	0.17608517
86	0x3d27fa1f	0.04101002
87	0xbd9593a9	-0.073035546
88	0xbdd47354	-0.103735596
89	0xbdbbbe9f	-0.091672175
90	0x3d13a206	0.03604319
91	0x3d915adf	0.070974104
92	0x3e0d066a	0.13771978
93	0xbe012e32	-0.12615278
94	0xbdbd81e2	-0.09253289
95	0x3db39d20	0.087702036
96	0xbdd59cac	-0.104302734
97	0x3d2875af	0.041127857
98	0xbdbba05d	-0.09161446
99	0x3e637a8e	0.2221472
100	0x3e1f037c	0.15528673
101	0x3e1bb54b	0.15205877
102	0x3d3b06f4	0.045660928
103	0xbc534911	-0.012895838
104	0x3e0885ce	0.13332292
105	0xbdee34fc	-0.116312
106	0xbda4b6a7	-0.08042651
107	0x3d509192	0.050920077
108	0xbde67019	-0.1125185
109	0xbe1fbb94	-0.15598899
110	0xbd998225	-0.07495526
111	0x3d6f0977	0.058358636
112	0xbda04204	-0.078250915
113	0xbd9378e4	-0.072007924
114	0x3d8a8de2	0.06765343
115	0xbda16929	-0.07881386
116	0x3a9d3876	0.0011994976
117	0xbd33227c	-0.04373406
118	0xbdaed548	-0.08536774
119	0xbdbb38f6	-0.09141724
120	0x3d7bd878	0.061485738
121	0xbcb4a850	-0.022052914
122	0xbe0d4cfa	-0.13798895
123	0x3cc58f7a	0.024116267
124	0x3daf2ee8	0.085538685
125	0x3d2d0575	0.042241532
126	0xbdae27f1	-0.08503712
127	0x3c890101	0.016724112
128	0xbe28a2b8	-0.16468322
129	0xbe13aef4	-0.14422208
130	0xbda834aa	-0.0821317
131	0xbe2068c7	-0.1566497
132	0xbd6e6cd5	-0.05820926
133	0xbe020c0b	-0.12699907
134	0xbd046bb0	-0.03232926
135	0xbda157db	-0.07878085
136	0x3dc9cc10	0.09853375
137	0xbd6519ef	-0.055932935
138	0x3e08aa8e	0.13346311
139	0xbddb848f	-0.10718643
140	0xbe0eea54	-0.13956577
141	0x3dbefeb6	0.09325926
142	0x3e21620a	0.15760055
143	0x3e140701	0.14455797

encode_modules.0.encode_modules.1.bn.weight f4 [4]
0	0x3f816d32	1.0111449
1	0x3f7af6ab	0.98032635
2	0x3f82f108	1.0229807
3	0x3f839e79	1.0282737

encode_modules.0.encode_modules.1.bn.bias f4 [4]
0	0x3d8b29c8	0.067950785
1	0x3e115503	0.14192586
2	0x3caff219	0.021477746
3	0x3d1035b9	0.035207484

encode_modules.0.encode_modules.1.bn.running_mean f4 [4]
0	0xbe321709	-0.173916
1	0xbe8049b6	-0.25056237
2	0x3d8b5f34	0.06805268
3	0xbf1dd77c	-0.6165693

encode_modules.0.encode_modules.1.bn.running_var f4 [4]
0	0x3dd7b691	0.10532869
1	0x3f091acc	0.53556514
2	0x3ee4eca3	0.4471179
3	0x3f4c4ddd	0.7980631

encode_modules.0.encode_modules.2.conv.weight f4 [4, 4, 3, 3]
0	0xbe3af420	-0.18257189
1	0xbce12529	-0.02748354
2	0xbdc80ead	-0.09768424
3	0xbda533b9	-0.08066506
4	0x3bc1b633	0.0059116124
5	0xbdf200ac	-0.118165344
6	0xbe1b394d	-0.15158577
7	0xbd4e4181	-0.05035544
8	0x3e197e2b	0.14989536
9	0x39357383	0.00017304537
10	0xbd4b8a5d	-0.0496925
11	0xbbedd90c	-0.00725854
12	0xbe175212	-0.14777401
13	0x3de8e27a	0.11371322
14	0xbd2d4a07	-0.042306926
15	0x3ac19da3	0.0014771711
16	0x3d791baa	0.060817398
17	0x3d96969d	0.07352946
18	0xbe6088c6	-0.21927175
19	0xbe221b44	-0.15830714
20	0xbe65a312	-0.22425488
21	0xbdae8266	-0.08520965
22	0x3db19b8d	0.08672247
23	0x3dd11750	0.10209525
24	0x3d9669cf	0.073444
25	0xbe11b0c0	-0.14227581
26	0x3d816c78	0.06319517
27	0xbe33c94a	-0.17557254
28	0xbc91bad2	-0.017789278
29	0xbde99a29	-0.11406357
30	0xbe342823	-0.17593436
31	0xbe5c3093	-0.21502905
32	0xbe14f1b6	-0.1454533
33	0x3c8ecacc	0.017430685
34	0x3df8baad	0.121449806
35	0xbd51b607	-0.051198985
36	0xbd323efe	-0.043517105
37	0xbc8484d6	-0.016176622
38	0x3dfd9b4d	0.12383137
39	0xbddc40a2	-0.10754515
40	0x3d8b5f42	0.06805278
41	0x3c829fb6	0.015945297
42	0xbc507a13	-0.012724417
43	0xbb7fa868	-0.003901029
44	0xbde3d4c3	-0.111245655
45	0x3e364e2e	0.1780326
46	0x39ffb537	0.00048772406
47	0x3e218713	0.15774183
48	0x3d5b559a	0.053548433
49	0xbe0b04e4	-0.13576084
50	0x3dc2211c	0.09478971
51	0xbdc51104	-0.09622386
52	0xbdc6e34a	-0.09711321
53	0x3d3413b3	0.0439641
54	0xbca78ea7	-0.020453764
55	0xbe14739c	-0.14497226
56	0x3e141014	0.14459258
57	0x3d4db2f2	0.050219484
58	0xbd2e16ea	-0.04250232
59	0x3de77510	0.11301625
60	0x3db0592a	0.08610757
61	0xbe32fe2b	-0.1747977
62	0xbe468c2d	-0.1938941
63	0x3e0a07a8	0.13479483
64	0x3d88365d	0.06650994
65	0x3d3380aa	0.043823875
66	0x3c927bd2	0.017881308
67	0xbde1fd54	-0.11034647
68	0xbdb66cb4	-0.08907452
69	0xbde4e63a	-0.11176725
70	0xbe133c3f	-0.14378451
71	0x3e1e114b	0.15436284
72	0xbcbbbf6f	-0.022918431
73	0x3dbd4322	0.0924132
74	0xbe139495	-0.14412148
75	0xbca37aeb	-0.019956073
76	0xbd63ffdc	-0.05566393
77	0xbdae995f	-0.08525347
78	0x3db66e69	0.08907778
79	0xbc3ae1e9	-0.0114064
80	0x3d0605e5	0.032720465
81	0x3d059aa7	0.03261819
82	0xbd5f59d2	-0.05452902
83	0xbe1f90eb	-0.15582626
84	0xbdfed9f6	-0.124439165
85	0x3e238b76	0.15971169
86	0xbe089bf6	-0.13340744
87	0x3e403876	0.18771538
88	0xbd18a695	-0.03726824
89	0x3e26e4f4	0.16298276
90	0xbe23153d	-0.1592607
91	0x3ddd8001	0.108154304
92	0xbda3d01e	-0.079986796
93	0xbe0a7d1e	-0.13524291
94	0x3c353eff	0.011062383
95	0xbdeb62d5	-0.1149346
96	0xbdbd357f	-0.09238719
97	0x3d68e6f8	0.056860894
98	0xbcf1f2ed	-0.029534781
99	0x3ddf6901	0.109087
100	0xbdaa327c	-0.083104104
101	0x3db3b8fd	0.08775518
102	0xbd67d465	-0.05659904
103	0x3e176b64	0.1478706
104	0xbd394cf9	-0.045239422
105	0xbcb331dd	-0.021874363
106	0x3df0f756	0.117659256
107	0x3d00e350	0.031466782
108	0xbdf3e6da	-0.11909266
109	0x3da51622	0.08060862
110	0xbd189860	-0.03725469
111	0xbdbc93ab	-0.09207853
112	0x3ded6f5e	0.11593507
113	0xbdfd2130	-0.12359846
114	0x3d8849cb	0.066547
115	0xbc822e90	-0.015891343
116	0x3deef963	0.116686605
117	0x3d074c4e	0.033031754
118	0x3e1650b7	0.14679228
119	0xbddc8a31	-0.107685454
120	0x3d99d55d	0.07511399
121	0xbe070566	-0.13185653
122	0xbdccdd44	-0.100031406
123	0x3d4a774b	0.049430173
124	0xbe509d49	-0.203725
125	0xbe08f770	-0.1337564
126	0x3e0fae4c	0.14031333
127	0x3dd57fb6	0.104247496
128	0xbe02cdbe	-0.12773797
129	0x3d47067c	0.04859017
130	0xbe5420ad	-0.2071559
131	0xbe2d89e7	-0.16947137
132	0xbe14e103	-0.1453896
133	0xbc723e13	-0.014785307
134	0xbddd993f	-0.10820245
135	0xbd401f60	-0.04690492
136	0xbe3ff290	-0.18744874
137	0xbe164b89	-0.14677252
138	0xbd994b26	-0.074850366
139	0xbc64d4f5	-0.013966789
140	0xbe02ca75	-0.12772544
141	0xbd3371b4	-0.043809608
142	0xbe08f359	-0.1337408
143	0xbe243ada	-0.16038075

encode_modules.0.encode_modules.2.bn.weight f4 [4]
0	0x3f7f149b	0.99640816
1	0x3f854b98	1.0413694
2	0x3f770499	0.9649139
3	0x3f873541	1.0563127

encode_modules.0.encode_modules.2.bn.bias f4 [4]
0	0x3d46cd8b	0.048535865
1	0x3dcbc365	0.09949378
2	0xba8bdd75	-0.0010670858
3	0x3d89ad85	0.06722549

encode_modules.0.encode_modules.2.bn.running_mean f4 [4]
0	0xbf49ef6d	-0.7888096
1	0xbd073850	-0.03301269
2	0xbd919faa	-0.07110532
3	0xbf4deb0d	-0.80436784

encode_modules.0.encode_modules.2.bn.running_var f4 [4]
0	0x3efcf2b1	0.4940391
1	0x3dd3adde	0.10335897
2	0x3da1858a	0.07886799
3	0x3f183b4b	0.59465474

encode_modules.0.encode_modules.3.conv.weight f4 [4, 4, 3, 3]
0	0xbe102c07	-0.14079295
1	0xbd743a0a	-0.059625663
2	0xbe58cb86	-0.21171388
3	0xbded3f72	-0.11584367
4	0xbd15f394	-0.036609247
5	0xbe3ee77e	-0.18642995
6	0xbe33ac05	-0.17546089
7	0xbd9b4bd7	-0.07582825
8	0xbd024b41	-0.03181005
9	0x3c313f04	0.010818247
10	0xbcef045a	-0.02917688
11	0xbd2b70ac	-0.0418555
12	0x3b291723	0.0025801144
13	0xbca7fc6c	-0.020506106
14	0xbdad1bde	-0.08452581
15	0x3de5a529	0.112131424
16	0xbd44d62a	-0.048055805
17	0xbd615acc	-0.05501823
18	0xbda21359	-0.079138465
19	0x3d1a3773	0.037650537
20	0x3d6c058c	0.057622477
21	0x3ddccee1	0.107816465
22	0xbde3f06c	-0.11129841
23	0x3d59e599	0.053197477
24	0x3de61b3e	0.11235665
25	0xbc477724	-0.012174401
26	0xbd819026	-0.06326322
27	0xbe04b485	-0.12959488
28	0xbe5764f9	-0.21034612
29	0x3c073666	0.008252716
30	0xbe28b363	-0.1647468
31	0xbd8687df	-0.06568884
32	0x3d7f05bc	0.062261328
33	0xbcc549fd	-0.024083132
34	0x3d143a06	0.036188148
35	0x3cd5b48b	0.026087066
36	0x3e00f3a1	0.12592937
37	0x3e073805	0.13204964
38	0x3aed2f0e	0.0018095688
39	0x3e00801f	0.12548874
40	0xbdb131ce	-0.086520776
41	0x3d7a8efb	0.061171513
42	0x3df56879	0.11982817
43	0x3e17cf3f	0.14825152
44	0xbd1f96fe	-0.038962357
45	0x3d8e2653	0.069409035
46	0xbe2fc8ae	-0.17166397
47	0xbe0205bf	-0.12697504
48	0xbdadd4df	-0.084878676
49	0xbd7a779a	-0.061149217
50	0xbe39fa7f	-0.18161963
51	0xbcf54dec	-0.029944383
52	0xbcf028f2	-0.0293164
53	0x3db1b639	0.08677334
54	0x3d484bd4	0.04890044
55	0xbd0ddbf4	-0.03463359
56	0xbdb101e6	-0.0864294
57	0x3d9f558b	0.07779988
58	0x3ce16c29	0.027517395
59	0x3b87a7f3	0.004139894
60	0x3ddf8e29	0.10915787
61	0x3db9cff2	0.090728655
62	0xbd625e04	-0.05526544
63	0x3e14a344	0.14515406
64	0x3e423ebb	0.18969242
65	0x3e2b8ca1	0.16752864
66	0x3b1afe40	0.002365008
67	0x3e0c46a7	0.13698827
68	0x3e2e6a86	0.17032823
69	0x3d91f5c3	0.071269535
70	0xbd620e9d	-0.055189718
71	0xbc2f248c	-0.010689866
72	0x3e3d0d84	0.18462187
73	0x3db5fc25	0.088859834
74	0x3b42b2e9	0.002970869
75	0xbc8b0816	-0.01697163
76	0x3df51e9c	0.11968729
77	0x3d978a66	0.07399444
78	0x3d51cb0f	0.051219042
79	0x3da5b969	0.08092005
80	0x3d46161e	0.048360936
81	0xbe2d0a3a	-0.16898432
82	0xbdaaaa86	-0.08333306
83	0xbdc9e687	-0.09858423
84	0x3c1adb84	0.009451751
85	0x3d309485	0.04311039
86	0xbdbb2c20	-0.091392756
87	0x3e0ecec7	0.13946067
88	0xbd8440da	-0.06457682
89	0x3c32a3ae	0.010903282
90	0xbda14541	-0.07874537
91	0x3d98ff7f	0.07470607
92	0xbd53b2ba	-0.05168412
93	0xbd8f4f12	-0.06997503
94	0xbca51d3c	-0.020155542
95	0xbd4a6d48	-0.049420625
96	0x3dac0476	0.08399288
97	0xbde1ca04	-0.110248595
98	0x3cbfa59f	0.023394404
99	0x3a414176	0.000737212
100	0x3e72d258	0.23713052
101	0xbc05ba6a	-0.00816212
102	0x3d410b69	0.047130022
103	0x3e3addd2	0.1824868
104	0x3db18310	0.08667576
105	0x3df27ba9	0.118399926
106	0xbe00f862	-0.1259475
107	0x3e079f8e	0.13244459
108	0x3ab5bdf6	0.0013865817
109	0xbcb84623	-0.022494381
110	0x3e102a5d	0.1407866
111	0xbc96fd88	-0.01843144
112	0x3e1ebdea	0.15502134
113	0x3e00adc3	0.12566285
114	0x3dbe1966	0.09282188
115	0xbe01ab63	-0.12663035
116	0x3e21bfce	0.15795824
117	0x3d6721f2	0.056428857
118	0x3e871952	0.26386505
119	0x3d9a4b3e	0.075338826
120	0x3e116a37	0.14200674
121	0xbdbcf623	-0.09226634
122	0x3e19ca14	0.15018493
123	0x3e123a7d	0.14280124
124	0x3dc4e583	0.096140884
125	0x3d0124e0	0.031529307
126	0xbe031bb3	-0.12803535
127	0xbd5cde3d	-0.05392288
128	0x3dd906ac	0.10596976
129	0xbc40f9fd	-0.011778352
130	0x3e260ea5	0.16216524
131	0xbe09520c	-0.13410205
132	0xbe278b3e	-0.1636171
133	0x3ba79e62	0.0051153162
134	0xbd70917a	-0.058732487
135	0xbcef2428	-0.029192045
136	0xbcdba254	-0.026810803
137	0xbda4883b	-0.080337964
138	0x3e219667	0.1578003
139	0x3d888911	0.06666768
140	0x3df230cf	0.11825716
141	0xbd832100	-0.064027786
142	0xbcc55bff	-0.024091719
143	0x3ddef7d4	0.10887113

encode_modules.0.encode_modules.3.bn.weight f4 [4]
0	0x3f7bb477	0.9832224
1	0x3f7bada3	0.98311824
2	0x3f8abae5	1.0838286
3	0x3f79e7a1	0.9761906

encode_modules.0.encode_modules.3.bn.bias f4 [4]
0	0xbd04b89a	-0.032402612
1	0x3d73575b	0.05940948
2	0x3db416ac	0.08793387
3	0x3c8756df	0.016520916

encode_modules.0.encode_modules.3.bn.running_mean f4 [4]
0	0xbf21882d	-0.6309841
1	0x3ecc3049	0.3988059
2	0x3ebc59d1	0.36787274
3	0x3f13e6d1	0.5777407

encode_modules.0.encode_modules.3.bn.running_var f4 [4]
0	0x3e9b732a	0.303613
1	0x3e640480	0.22267342
2	0x3e619fb6	0.22033581
3	0x3e854dee	0.26036018

encode_modules.0.encode_modules.4.conv.weight f4 [4, 4, 3, 3]
0	0x3d9b3b27	0.07579642
1	0x3d9d358e	0.0767623
2	0xbde67c73	-0.112542056
3	0xbafb57c4	-0.0019175936
4	0xbd8d537e	-0.069006905
5	0xbc4ba6c1	-0.012429894
6	0x3defd4c5	0.117105044
7	0x3ddeac61	0.108727224
8	0xbdac77d8	-0.08421296
9	0x3db29513	0.0871984
10	0xbd322420	-0.043491483
11	0x3e15b78c	0.14620799
12	0x3e859cc4	0.26096165
13	0xbd8efed8	-0.06982201
14	0xbd3a8839	-0.04554007
15	0x3dcc3b9d	0.09972308
16	0xbcee7707	-0.029109491
17	0x3e237054	0.15960819
18	0x3e3a4096	0.181887
19	0x3e829220	0.2550211
20	0x3e3b51d0	0.18292928
21	0xba3de4ce	-0.00072438724
22	0x3e8792c8	0.26479173
23	0x3e51fafb	0.20505898
24	0xbd8c2764	-0.06843451
25	0xbaf6c042	-0.0018825608
26	0xbb810f8f	-0.0039386223
27	0x3d794625	0.06085791
28	0xbdd80069	-0.10546953
29	0xbdc0769a	-0.093976215
30	0xbdae917b	-0.08523842
31	0x3d8c6e1c	0.06856939
32	0xbd740a78	-0.059580296
33	0x3da9e6d9	0.08295984
34	0xbd8489be	-0.06471585
35	0x3dcc885a	0.099869445
36	0x3da4e943	0.08052304
37	0xbdadf460	-0.084938765
38	0xbe1aba4b	-0.15110128
39	0xbc8a62de	-0.016892847
40	0x3b5eee1e	0.003401644
41	0xbdff4db8	-0.124659956
42	0xbe1275fa	-0.14302817
43	0xbb06154c	-0.0020459471
44	0xbd16fbe2	-0.036861308
45	0x3e366cdc	0.17814964
46	0x3c126d0b	0.008937131
47	0x3d5735d5	0.052541573
48	0x3d2bb62b	0.041921776
49	0x3e03b6bb	0.12862675
50	0xbdc574f7	-0.0964145
51	0xbcc62ba7	-0.024190737
52	0x3d78fcc0	0.060787916
53	0xbcec0742	-0.028812055
54	0x3d6a22ac	0.057161972
55	0x3e65097d	0.223669
56	0xbd169a51	-0.03676826
57	0x3e0ae681	0.13564493
58	0xbd601173	-0.05470414
59	0x3df4dbf9	0.11956019
60	0x3dfa2019	0.122131534
61	0xbc605424	-0.013691936
62	0x3b937cac	0.004500946
63	0xbd17b95c	-0.037042007
64	0xbd1c7ed6	-0.038206898
65	0x3cbe3459	0.02321832
66	0xbe292114	-0.16516525
67	0x3dbb0bef	0.091331355
68	0x3e2d5579	0.16927136
69	0x3dc54c9f	0.09633755
70	0xbe2b5f96	-0.16735682
71	0xbe0bf1e4	-0.13666493
72	0x3d9b2523	0.07575443
73	0xbd6bbd15	-0.05755337
74	0x3e24d913	0.16098432
75	0xbd30a1da	-0.043123104
76	0xbbbe5b5a	-0.00580923
77	0xbdac0fcb	-0.0840145
78	0x3cdda1b3	0.027054643
79	0xbd06ce84	-0.032911792
80	0x3b3f0dc7	0.00291525
81	0xbde156a2	-0.11002852
82	0x3dc4e91f	0.09614777
83	0x3da03434	0.07822457
84	0xbd240401	-0.04004288
85	0x3d8f4d77	0.06997197
86	0x3de5ecfb	0.11226841
87	0xbe4ae890	-0.19815278
88	0x3dea2610	0.11433041
89	0x3cf259e2	0.029583875
90	0xbd128445	-0.035770673
91	0xbd92e862	-0.0717323
92	0x3d880e72	0.0664338
93	0xbe1beb66	-0.15226516
94	0xbe22805b	-0.15869276
95	0xbc1c57f5	-0.009542455
96	0xbdccb695	-0.09995762
97	0xbda2acc6	-0.0794311
98	0x3e10a089	0.1412374
99	0xbe16eb13	-0.14738111
100	0x3db2b94f	0.08726751
101	0x3c9c98af	0.019115774
102	0xbe04573f	-0.12923907
103	0xbd863b4f	-0.06554281
104	0xbd80859e	-0.062754855
105	0xbe07ffb6	-0.1328114
106	0xbe2c36f1	-0.16817833
107	0xbd8ef177	-0.069796495
108	0x3cdc8b8d	0.026922012
109	0xbe329c6e	-0.17442486
110	0xbe3cbea9	-0.18432106
111	0x3de4a74a	0.1116472
112	0xbe00a51a	-0.12562981
113	0x3db1bc31	0.08678473
114	0xbd8c6867	-0.06855851
115	0xbe14d717	-0.14535175
116	0xbe0d9234	-0.13825303
117	0xbdf894ee	-0.12137781
118	0x3dddd3da	0.10831423
119	0x3d9cd899	0.076585
120	0x3d90e154	0.07074228
121	0x3d63243e	0.055454485
122	0xbd0fa240	-0.035066843
123	0x3cac2450	0.021013409
124	0x3d56c2d1	0.052431885
125	0xbddc8feb	-0.10769638
126	0xbdd238f4	-0.10264769
127	0x3e3e4e61	0.18584587
128	0x3dbc5beb	0.091972195
129	0x3d4ff7c6	0.050773405
130	0xbe1909b4	-0.14945108
131	0x3d3fb0bf	0.046799418
132	0x3db64855	0.08900515
133	0x3daa4b37	0.08315127
134	0xbd21d72e	-0.039511852
135	0x3c644d79	0.013934487
136	0xbe0068c0	-0.12539959
137	0xbe01db32	-0.12681273
138	0xbd891dea	-0.06695159
139	0x3ca54809	0.02017595
140	0xbe02f3d3	-0.12788324
141	0xbdb3239e	-0.08747028
142	0xbdc445ee	-0.095836505
143	0x3e23ae7d	0.15984531

encode_modules.0.encode_modules.4.bn.weight f4 [4]
0	0x3f77e449	0.9683271
1	0x3f8197a5	1.0124403
2	0x3f81bdfe	1.0136106
3	0x3f7e0bb4	0.9923661

encode_modules.0.encode_modules.4.bn.bias f4 [4]
0	0x3db05028	0.086090386
1	0x3d450f45	0.048110265
2	0x3d7b287c	0.061317906
3	0x3b4106a2	0.0029453416

encode_modules.0.encode_modules.4.bn.running_mean f4 [4]
0	0x3f5122ad	0.81693536
1	0x3e2af9e4	0.16696888
2	0xbeefecee	-0.4686045
3	0xbe99fd3c	-0.30076015

encode_modules.0.encode_modules.4.bn.running_var f4 [4]
0	0x3f45583c	0.7708776
1	0x3ee1ceac	0.4410299
2	0x3e90138e	0.2813992
3	0x3e2e9ba5	0.17051561

encode_modules.0.encode_modules.5.conv.weight f4 [4, 4, 3, 3]
0	0xbcb3250c	-0.021868251
1	0xbdf3de70	-0.11907661
2	0x3d66ad35	0.056317527
3	0x3e0befbb	0.13665669
4	0x3dd8db77	0.105887346
5	0xbdd2b18f	-0.10287773
6	0x3ce4e6f5	0.02794216
7	0xbdda19fe	-0.10649489
8	0x3dab99c8	0.08378941
9	0x3dc8f9fc	0.09813306
10	0x3d0d1a37	0.03444883
11	0x3e2c0293	0.16797857
12	0x3e3c06d4	0.1836198
13	0x3e19a773	0.15005283
14	0xbd8f8ac3	-0.070088886
15	0x3c2c1d4a	0.01050503
16	0x3d9f4dcd	0.07778511
17	0xbdb23476	-0.087014124
18	0xbddeb324	-0.10874012
19	0x3d88124c	0.06644115
20	0xbe246a8c	-0.1605627
21	0x3de5f5b4	0.11228505
22	0xbe22a2b4	-0.15882379
23	0xbc9ca0be	-0.019119617
24	0xbe22255e	-0.15834567
25	0xbe121380	-0.14265251
26	0xbd01e71a	-0.031714536
27	0xbd0dffdd	-0.03466784
28	0x39c252db	0.00037064296
29	0x3d61e735	0.055152137
30	0xbdea331d	-0.1143553
31	0xbc6f8f3e	-0.014621554
32	0xbd9a648d	-0.0753871
33	0x3dff28ff	0.12458991
34	0xbe2103ea	-0.1572415
35	0xbe0aadc2	-0.13542846
36	0xbe43c56a	-0.19118276
37	0xbe17cf63	-0.14825206
38	0xbd29bace	-0.041437916
39	0x3be55f2f	0.006999872
40	0x3e182ff6	0.14862046
41	0xbb859b25	-0.0040773326
42	0xbd048717	-0.032355394
43	0x3e2108d9	0.15726031
44	0xbe23544f	-0.1595013
45	0xbd2ae0ea	-0.0417184
46	0xbd414325	-0.047183175
47	0xbdb3c71a	-0.0877821
48	0x3da4f62a	0.080547646
49	0xbe0a6a84	-0.13517195
50	0x3d13198a	0.035913028
51	0x3dc72938	0.09724659
52	0xbe0cfefd	-0.13769145
53	0xbd1818b9	-0.037132952
54	0xbdd8c045	-0.105835475
55	0xbd2c5761	-0.04207552
56	0xbd6ef88a	-0.058342494
57	0xbe0d11b0	-0.13776278
58	0xbe14a9c2	-0.14517882
59	0xbd91b501	-0.07114602
60	0xbd7dea2a	-0.061990894
61	0xbd8a079e	-0.06739734
62	0xbd3100b5	-0.043213565
63	0x3db36cab	0.08760961
64	0xbdb1bc7a	-0.08678527
65	0x3d0da1d1	0.03457815
66	0xbd173bf4	-0.03692241
67	0x3b64d445	0.0034916562
68	0xbc69309c	-0.014232781
69	0xba980923	-0.0011599403
70	0xbdad97c5	-0.08476213
71	0xba1bea6b	-0.0005947712
72	0xbcf01055	-0.029304663
73	0x3e041360	0.12898016
74	0xbdaed589	-0.08536822
75	0xbd932c8c	-0.07186231
76	0x3cf00593	0.029299533
77	0x3e4269ae	0.18985626
78	0xbd4a0e22	-0.049329884
79	0xbe011899	-0.1260704
80	0xbe0e0482	-0.13868907
81	0x3e1e2b35	0.1544617
82	0xbc244416	-0.010025999
83	0x3e03298e	0.1280882
84	0xbdcecdfe	-0.10097884
85	0x3d79688e	0.060890727
86	0x3df9c341	0.12195445
87	0x3dd027e0	0.101638556
88	0x3de5d5c8	0.11222416
89	0xbe0efe54	-0.13964206
90	0x3e154d72	0.14580324
91	0xbc62ec77	-0.013850323
92	0x3d17085f	0.036873218
93	0x3d005442	0.031330355
94	0xbd8f1fd8	-0.069884956
95	0xbdaefad2	-0.08543934
96	0xbdf43533	-0.119242094
97	0x3d8228d6	0.06355445
98	0xbcfe5970	-0.031048506
99	0x3e2a423b	0.16626827
100	0x3c356e49	0.011073657
101	0x3dc46171	0.09588898
102	0x3d23180a	0.039817847
103	0x3e45d7d1	0.19320609
104	0x3de15db0	0.110041976
105	0xbd1eda09	-0.038782153
106	0xbe081014	-0.13287383
107	0x3b19bc6e	0.002345826
108	0xbd4f8c37	-0.05067083
109	0xbd5faa86	-0.054605983
110	0x3cce5d75	0.025191048
111	0xbd2e786b	-0.04259531
112	0x3e2c1098	0.16803205
113	0xbe196965	-0.14981611
114	0xbcd6973b	-0.02619516
115	0xbca81742	-0.020518903
116	0x3e1aa0a0	0.15100336
117	0x3e0f12c4	0.13972002
118	0xbd987d08	-0.07445723
119	0xbdc572b5	-0.09641019
120	0x3e53f568	0.20699084
121	0x3e1759b5	0.14780314
122	0x3e490e7f	0.19634436
123	0x3e014731	0.12624814
124	0x3dcee1e8	0.10101682
125	0x3e2af071	0.16693284
126	0x3e2f2829	0.17105164
127	0xbe36c9f6	-0.1785048
128	0xbe4c5f06	-0.19958124
129	0xbde751ff	-0.112949364
130	0x3be6f45a	0.007048172
131	0xbe37475f	-0.1789832
132	0x3dd65d3f	0.10467004
133	0x3da3b98a	0.07994373
134	0xbe076cd1	-0.13225104
135	0x3d6fa313	0.05850513
136	0x3e1dd90d	0.1541483
137	0xbde3f361	-0.11130405
138	0xbdacc600	-0.08436203
139	0xbbc929a4	-0.006138997
140	0xbd83ddd0	-0.06438792
141	0x3d2450a5	0.04011597
142	0x3d84e558	0.06489056
143	0xbd21261b	-0.03934298

encode_modules.0.encode_modules.5.bn.weight f4 [4]
0	0x3f8897dd	1.0671345
1	0x3f7dc8c4	0.9913447
2	0x3f83164b	1.0241178
3	0x3f73dbce	0.9525727

encode_modules.0.encode_modules.5.bn.bias f4 [4]
0	0x3d53c6b6	0.051703177
1	0xbc5f2c9a	-0.013621474
2	0x3dc79307	0.0974484
3	0x3d1a6912	0.03769786

encode_modules.0.encode_modules.5.bn.running_mean f4 [4]
0	0xbde30c7a	-0.11086364
1	0xbf26fccc	-0.6522949
2	0x3ea86e5c	0.32896698
3	0x3e9252f5	0.28578916

encode_modules.0.encode_modules.5.bn.running_var f4 [4]
0	0x3e5a9ad9	0.21348132
1	0x3e032fdd	0.12811227
2	0x3e65f43c	0.2245645
3	0x3f16be04	0.5888369

encode_modules.0.encode_modules.6.conv.weight f4 [4, 4, 3, 3]
0	0x3cc3656a	0.023852069
1	0xbd8852e7	-0.06656437
2	0xbe496ffb	-0.19671623
3	0x3e35f3fd	0.17768855
4	0xbdb995ba	-0.09061761
5	0xbd9bae33	-0.07601585
6	0x3c489139	0.012241655
7	0xbe00f7eb	-0.12594573
8	0x3ca97958	0.020687744
9	0xbdd4e980	-0.10396099
10	0x3d29c427	0.04144683
11	0xbcc52eea	-0.024070222
12	0xbdd787cf	-0.1052395
13	0x3e0361ac	0.12830228
14	0x3de133b9	0.109961934
15	0xbda75e2d	-0.081722595
16	0x3db78e1d	0.08962653
17	0x3dd4e17f	0.103945725
18	0xbdba53d4	-0.0909802
19	0xbdd1f8e5	-0.10252551
20	0xbe2d26a7	-0.16909276
21	0x3c74730e	0.014920009
22	0x3d57ebd0	0.052715123
23	0x3db533af	0.088477485
24	0x3d35b5c5	0.044362802
25	0xbd8d1fbb	-0.06890818
26	0xbe08b1c0	-0.13349056
27	0x3dceaeac	0.1009191
28	0xbde64961	-0.11244465
29	0x3d18c9fa	0.037301995
30	0xbd148938	-0.036263674
31	0x3db10d35	0.08645097
32	0x3d3c3c4a	0.045955934
33	0x3e03d8eb	0.12875716
34	0xbc056a57	-0.008143029
35	0xbe3030fd	-0.17206188
36	0xbd2df1ee	-0.04246705
37	0xbd611d81	-0.054959778
38	0x3e3aa8ee	0.18228504
39	0x3e5c5654	0.21517307
40	0x3e022def	0.12712835
41	0x3e5b6430	0.21424937
42	0x3deacc15	0.11464707
43	0xbdd72e86	-0.105069205
44	0xbd3dc7e2	-0.0463332
45	0xbdbb8cba	-0.09157701
46	0xbdd40cfd	-0.1035404
47	0xbe13c073	-0.14428882
48	0xbe5608f9	-0.2090186
49	0xbd0af1c7	-0.033921983
50	0x3e0e12c1	0.13874342
51	0xbe02fc02	-0.12791446
52	0xbcea8404	-0.028627403
53	0x3d5a7d44	0.05334212
54	0xbd6a0470	-0.05713314
55	0x3e079515	0.13240464
56	0x3d61ffe9	0.055175696
57	0xbd0c624d	-0.034273434
58	0x3a0e40d5	0.0005426531
59	0x3dcfba58	0.10142964
60	0xbd80063b	-0.06251188
61	0x3df77ddc	0.12084553
62	0xbe15a7b3	-0.14614753
63	0x3ddca089	0.10772807
64	0xbd318523	-0.04333986
65	0x3e20712b	0.1566817
66	0xbdc7a380	-0.09747982
67	0x3d475c6c	0.048672125
68	0xbdcc3a94	-0.099721104
69	0x3db4847e	0.088143334
70	0xbdd48f01	-0.10378838
71	0x3e03cba9	0.12870659
72	0xbddb0837	-0.10694926
73	0x3de31a61	0.11089016
74	0xbe3624b9	-0.17787446
75	0xbdcd396a	-0.100207165
76	0xbe03742b	-0.12837283
77	0xbd98b1e6	-0.074558064
78	0xbdc6b247	-0.097019725
79	0x3e492bf0	0.19645667
80	0xbcc42206	-0.023942005
81	0x3e0ef57d	0.13960834
82	0xbe13472c	-0.14382619
83	0xbe2cde79	-0.16881742
84	0xbe2c3ad5	-0.16819318
85	0xbce0952b	-0.027414879
86	0x3d52ecc4	0.05149533
87	0xbd8ea49b	-0.0696499
88	0xbe044311	-0.12916209
89	0xbd1222b2	-0.03567762
90	0xbdcb4e38	-0.099270284
91	0xbb9dc8a5	-0.0048151785
92	0xbe2be27e	-0.16785619
93	0xbd1e7b1c	-0.038691625
94	0xbe1e0148	-0.15430176
95	0xbe04f3ca	-0.12983623
96	0xbd9b657e	-0.075877175
97	0xbd44c8af	-0.04804295
98	0xbd79ad74	-0.060956433
99	0xbdd8a3f9	-0.1057815
100	0xbe1be3fe	-0.15223691
101	0xbe68d0bb	-0.22735874
102	0x3c31a773	0.010843146
103	0x3c702f7f	0.014659761
104	0xbdf13ca8	-0.117791474
105	0xbda6a662	-0.08137204
106	0x3d91cfc1	0.07119704
107	0xbe225992	-0.15854481
108	0xbc6fc79e	-0.014634995
109	0xbd8e4db6	-0.06948416
110	0x3e16de51	0.14733244
111	0xbaf7ea00	-0.0018914342
112	0x3dfc9bf6	0.12334435
113	0x3dced885	0.100998916
114	0xbe455d5c	-0.19273895
115	0x3e4f919a	0.20270386
116	0x3ce6cba8	0.028173283
117	0x3d80a5fa	0.062816575
118	0xbdf9f163	-0.12204244
119	0x3d2c1908	0.04201606
120	0xbdc26b31	-0.094931014
121	0xbd3ced9d	-0.046125043
122	0xbe26ef02	-0.16302112
123	0x3d8122c0	0.06305456
124	0x3b6c8761	0.0036091434
125	0x3c0ead59	0.0087083215
126	0xbdde0a0e	-0.108417615
127	0xbdf22451	-0.11823333
128	0x3e2055d9	0.15657748
129	0xbdf963f9	-0.121772714
130	0x3df6bacf	0.1204735
131	0x3e2ee619	0.17079963
132	0x3ce23499	0.027612971
133	0x3d7a2ca8	0.061077744
134	0x3d91ba21	0.071155794
135	0xbd7bac3a	-0.061443545
136	0x3d56fe76	0.052488767
137	0x3d0d1fdf	0.034454223
138	0xbe1beedf	-0.15227841
139	0xbe1b3bac	-0.15159482
140	0x3ca9990d	0.020702863
141	0x3d216cfb	0.039410572
142	0xbc98c059	-0.018646406
143	0xbd2e4b99	-0.042552564

encode_modules.0.encode_modules.6.bn.weight f4 [4]
0	0x3f7962da	0.9741646
1	0x3f7f8139	0.99806553
2	0x3f8637a2	1.0485728
3	0x3f7e6b53	0.99382514

encode_modules.0.encode_modules.6.bn.bias f4 [4]
0	0x3b788932	0.0037923572
1	0x3dbb2b2b	0.09139093
2	0x3cf7caed	0.03024813
3	0xbc6e5603	-0.014546874

encode_modules.0.encode_modules.6.bn.running_mean f4 [4]
0	0xbe3d52f5	-0.18488677
1	0x3e5cb86e	0.2155473
2	0xbf64b241	-0.89334494
3	0x3d4220ab	0.047394436

encode_modules.0.encode_modules.6.bn.running_var f4 [4]
0	0x3e3b38c1	0.18283369
1	0x3ea6e427	0.3259594
2	0x3f724a3c	0.9464452
3	0x3e27139a	0.16316071

encode_modules.0.decode_modules.0.conv.weight f4 [4, 8, 3, 3]
0	0xbd4d3431	-0.0500986
1	0x3e095e6b	0.13414924
2	0x3e03314a	0.12811771
3	0x3c71f93a	0.014768893
4	0x3c0ca20b	0.008583556
5	0x3deab66c	0.114605755
6	0x3db46486	0.08808236
7	0xbda96a31	-0.082722075
8	0x3d84c4cb	0.06482848
9	0x3d1a88f6	0.037728272
10	0x3d9d73eb	0.07688125
11	0x3cd1b61e	0.025599536
12	0x3dccb5fb	0.099956475
13	0x3dad5495	0.08463398
14	0x3d8719c9	0.06596715
15	0x3bd97f12	0.0066374624
16	0x3de6578d	0.11247168
17	0xbca73d45	-0.020414958
18	0xbe078e0f	-0.13237785
19	0xbe1c75f9	-0.15279378
20	0xbd67ec59	-0.056621883
21	0xbd71dd90	-0.05904919
22	0xbe2b9bc6	-0.16758642
23	0xbd9dac00	-0.07698822
24	0x3d2649ab	0.0405976
25	0xbdfe4981	-0.124163635
26	0xbe030ee6	-0.12798652
27	0xbdad8690	-0.084729314
28	0xbd62d9f1	-0.055383626
29	0x3e1f9492	0.15584019
30	0x3dd5531c	0.104162425
31	0x3dc4f77c	0.096175164
32	0x3c3e03e3	0.011597606
33	0xbd7e9cf0	-0.062161386
34	0x3d8a82db	0.0676324
35	0x3de9b924	0.11412266
36	0x3dc5b37e	0.09653376
37	0x3e1acdfc	0.1511764
38	0x3e12ac6f	0.1432359
39	0xbd55cfe3	-0.05220021
40	0xbdbeaea7	-0.09310656
41	0x3daf6888	0.0856486
42	0xbd14e7ec	-0.03635399
43	0x3dab2689	0.083569594
44	0x3ba679c9	0.005080436
45	0xbe0c7bfe	-0.13719174
46	0x3da017da	0.07817049
47	0x3d9a98ef	0.07548701
48	0x3d51d117	0.051224794
49	0xbe17ec3c	-0.1483621
50	0xbd7217fa	-0.059104897
51	0x3c48e3ca	0.01226134
52	0xbd6d379f	-0.057914373
53	0xbc1d96f9	-0.009618514
54	0x3c448a57	0.011995873
55	0x3e0f8d0f	0.14018653
56	0x3d850ae6	0.06496219
57	0x3d3209df	0.043466445
58	0x3db87e6b	0.09008487
59	0x3d5f7645	0.05455615
60	0xbcc84cbb	-0.02445065
61	0x3d67f792	0.056632586
62	0xbd75ddea	-0.060026087
63	0xbbb09352	-0.0053886557
64	0x3e2f3d08	0.17113125
65	0x3ce0fdc3	0.027464753
66	0x3d9be81e	0.07612632
67	0x3dfcd448	0.12345177
68	0x3d2fbfc7	0.042907503
69	0x3daf3d8f	0.08556663
70	0x3c30b760	0.0107859075
71	0xbdd4a728	-0.10383445
72	0xbb8f8a23	-0.004380481
73	0xbcd8b25f	-0.026452241
74	0xbd45917e	-0.048234455
75	0xbdce266a	-0.10065921
76	0xbcd4142c	-0.025888525
77	0xbd80d991	-0.062914975
78	0x3db8b1f1	0.09018315
79	0x3d89ade7	0.06722622
80	0xbdc25a40	-0.0948987
81	0x3e281e13	0.16417722
82	0xbd8366f0	-0.06416118
83	0x3e04dbdf	0.12974499
84	0x3bbe5f84	0.005809726
85	0xbd2cbb56	-0.042170845
86	0xbd9062c7	-0.0705009
87	0x3b980e15	0.0046403506
88	0xbda5d3b8	-0.08097023
89	0x3d0b5246	0.03401401
90	0x3dc980b2	0.09839
91	0x3d75ad02	0.059979446
92	0x3d8aff20	0.067869425
93	0x3dab781d	0.08372519
94	0x3d102794	0.035193995
95	0xbd563843	-0.05229975
96	0xbcf91515	-0.03040556
97	0x3e121d99	0.14269103
98	0x3dc71ea1	0.09722639
99	0xbdc34981	-0.09535504
100	0xbe048e94	-0.12945014
101	0x3ddb294b	0.107012354
102	0x3d49fa64	0.049311057
103	0xbe01f72e	-0.12691948
104	0x3d24bd7e	0.040219776
105	0x3c17509a	0.0092355255
106	0xbdc1ebc3	-0.09468796
107	0xbd7b52ea	-0.06135837
108	0xbd3b1b86	-0.045680545
109	0xbc92dc5d	-0.017927343
110	0xbd8dbc30	-0.069206595
111	0x3d09c7cd	0.03363781
112	0x3dbb18e9	0.091356106
113	0x3dcba10a	0.09942825
114	0xbddc9475	-0.107705034
115	0x3dd1a197	0.10235899
116	0x3db95d99	0.090510555
117	0xbd24a922	-0.04020036
118	0x3c9d255e	0.019182857
119	0xbdab6ff4	-0.08370963
120	0xbe084538	-0.13307655
121	0x3d079090	0.03309685
122	0xbc225b0d	-0.0099094035
123	0xbdfa5a62	-0.122242704
124	0x3cbc6247	0.022996081
125	0xbe17990a	-0.14804474
126	0x3c2590b3	0.0101053
127	0xbdfc73ea	-0.12326796
128	0x3bf261ee	0.007396928
129	0xbdf13b2f	-0.117788665
130	0x3cbce488	0.023058191
131	0x3d8d5641	0.06901217
132	0xbda1771c	-0.078840464
133	0x3d81f8c6	0.06346278
134	0x3acf2485	0.001580373
135	0xbda153a2	-0.0787728
136	0xbcba808c	-0.022766374
137	0xbe103396	-0.14082178
138	0xbd4b1e18	-0.049589247
139	0x3ba17630	0.004927419
140	0xbdf2f13f	-0.1186242
141	0xbdc988ec	-0.09840569
142	0xbd7bf0ff	-0.06150913
143	0xbc561e98	-0.013068818
144	0xbccc1211	-0.024910958
145	0xbdc60117	-0.096681766
146	0xbd9de1b4	-0.07709065
147	0xbdb85799	-0.09001083
148	0xbd08b58e	-0.03337627
149	0xbdfefb8f	-0.12450325
150	0x3d954a6e	0.07289587
151	0x3de3577a	0.11100669
152	0xbc012bbd	-0.007883963
153	0x3cb9d517	0.022684617
154	0x3da7f4ef	0.08201014
155	0xbc3a33f8	-0.011364929
156	0x3bd21664	0.0064113606
157	0xbe1cb7cc	-0.15304488
158	0xbe208b4e	-0.1567814
159	0x3d324200	0.043519974
160	0xbd9aebed	-0.075645305
161	0xbd53b9c5	-0.051690836
162	0x3dcb790b	0.099351965
163	0x3e067fe3	0.13134722
164	0xbd0a18fe	-0.03371524
165	0x3ccd1cb6	0.025038105
166	0x3df12e2f	0.11776387
167	0xbd318f76	-0.043349706
168	0x3dac33c6	0.084083125
169	0x3d790a49	0.060800824
170	0x3dbfcba4	0.09365013
171	0x3d8a757f	0.06760692
172	0xbdb30b97	-0.08742445
173	0xbd8c76e3	-0.06858613
174	0xbde9f251	-0.11423171
175	0xbdcd5b95	-0.100272335
176	0x3c8d80fe	0.017273422
177	0x3dad3c38	0.084587514
178	0xbd8c5b6f	-0.06853377
179	0xbe1c312a	-0.1525313
180	0xbe2ad5a2	-0.16683057
181	0xbc71664f	-0.014733865
182	0x3bdee66f	0.006802372
183	0xbdaf4f97	-0.085601024
184	0xbc173f5d	-0.009231416
185	0x3deb0b21	0.11476732
186	0x3de7df41	0.11321879
187	0x3d66c315	0.05633839
188	0xbd962c2a	-0.073326424
189	0xbdecf2fd	-0.11569784
190	0xbdae49a0	-0.085101366
191	0xbbbbf300	-0.005735755
192	0xbdad4e96	-0.08462255
193	0xbde36795	-0.11103741
194	0x3dec34cd	0.115335084
195	0xbd62ceab	-0.055372875
196	0x3d9d8be9	0.07692701
197	0xbdc520ee	-0.096254215
198	0xbe0e3d3c	-0.13890547
199	0xbdb2dd7f	-0.08733653
200	0x3dcf4b0b	0.10121735
201	0x3ccd2400	0.02504158
202	0xbdb87545	-0.090067424
203	0xbd516fe0	-0.051132083
204	0x3de69e20	0.11260629
205	0xbd12563b	-0.035726767
206	0xbd864da3	-0.06557777
207	0x3d0d4de1	0.0344981
208	0x3d082be2	0.033244975
209	0xbd0f0b89	-0.03492311
210	0xbd139dee	-0.036039285
211	0x3d3b1593	0.04567487
212	0x3da339b9	0.07969994
213	0x3d6bec8a	0.057598628
214	0xbdab7cd5	-0.08373419
215	0x3c8f1217	0.01746468
216	0x3c13048e	0.008973254
217	0x3de3a8f7	0.11116212
218	0xbd7cca08	-0.06171611
219	0xbdf8bf71	-0.121458896
220	0x3d1cee7b	0.03831337
221	0xbd99ea6d	-0.07515416
222	0x3c045e6f	0.008079155
223	0x3d784ad1	0.060618225
224	0x3ce5c7c3	0.028049355
225	0xbd6e9c54	-0.058254555
226	0x3e3e6841	0.18594457
227	0xbd348ddc	-0.0440806
228	0x3da6c67f	0.08143329
229	0x3dfe0b39	0.12404484
230	0xbd8e12a6	-0.06937151
231	0x3d72d745	0.05928733
232	0x3c5dfdea	0.013549307
233	0xbc861f57	-0.016372366
234	0x3cd25d54	0.025679268
235	0xbe1729bd	-0.14762016
236	0xbe19d139	-0.15021218
237	0xbe34eeba	-0.17669192
238	0xbd1cb95a	-0.038262703
239	0xbe1bffbc	-0.15234274
240	0xbbf946a7	-0.0076072994
241	0xbce0d306	-0.027444374
242	0xbe353280	-0.17695045
243	0xbdbc5753	-0.09196343
244	0x3d0da162	0.034577735
245	0xbccc67f4	-0.024951912
246	0xbdb14f82	-0.08657743
247	0x3d91955d	0.07108567
248	0xbd3d4e59	-0.046217296
249	0xbde272f6	-0.11057083
250	0x3dc77080	0.097382545
251	0x3d0178c5	0.031609315
252	0x3df4e069	0.11956865
253	0x3d9fa67a	0.07795425
254	0xbc7d0877	-0.015443913
255	0x3d82806f	0.06372153

encode_modules.0.decode_modules.0.bn.weight f4 [4]
0	0x3f7b2a7d	0.98111707
1	0x3f7efc4d	0.9960373
2	0x3f82e109	1.0224925
3	0x3f7e90f2	0.9943992

encode_modules.0.decode_modules.0.bn.bias f4 [4]
0	0x3d9be2a7	0.0761159
1	0xbd7ee604	-0.06223108
2	0x3d1aa0b9	0.037750933
3	0x3dc07fe8	0.09399396

encode_modules.0.decode_modules.0.bn.running_mean f4 [4]
0	0x3f0bf950	0.54677296
1	0xbe92d08f	-0.28674743
2	0xbea4f0a7	-0.32214853
3	0x3e8fdae8	0.280967

encode_modules.0.decode_modules.0.bn.running_var f4 [4]
0	0x3ff50cae	1.9144495
1	0x3eacac2c	0.33725107
2	0x3ef2d941	0.47431377
3	0x3f90b1b2	1.1304228
