results_sirst/S_IoU-0.7812_nIoU-0.7633.pth (torch, 553878 bytes, 814 tensors)

encode_modules.0.conv_in.conv.weight f4 [8, 3, 3, 3]
-0.08298061 0.07807583 0.0031241318 0.1498831 0.12351724 -0.036962345 0.14991727 0.161992
-0.24491201 0.1268597 0.20916606 -0.20358452 0.0014015343 -0.11060415 -0.08611991 0.02749889
-0.16690688 0.027673127 0.27249753 -0.03577952 0.1123484 -0.028774796 -0.044215288 -0.12403282
0.032223992 -0.106626645 -0.050559852 -0.23290221 0.11608986 0.11421928 -0.121039085 -0.20216626
0.21821201 -0.02850317 0.14595172 0.170435 0.007364802 0.047215242 0.08445948 0.043327004
-0.16736086 -0.061253704 0.07674715 -0.074720435 -0.08861781 0.015350122 -0.116701454 0.19513701
-0.0732285 -0.033770032 -0.1358869 -0.11149141 -0.020620663 0.026731627 -0.0063184947 0.20036903
0.07183268 0.08881379 0.1499546 -0.04481151 0.093169756 -0.11718992 -0.20416428 0.1541669
0.20499295 0.09838281 -0.15857503 -0.16466999 -0.06534538 -0.058971744 -0.041945104 0.012967441
-0.033691652 -0.0011987872 0.24489272 -0.1513027 -0.037669532 0.07832146 -0.16537954 0.03182133
-0.18852778 0.08705664 0.027176602 -0.16895968 0.082547866 -0.038537532 -0.13399878 0.047914285
0.17253937 0.16169687 -0.029780481 -0.20773698 -0.13105817 -0.15068819 -0.08317552 0.091463886
0.0775127 0.06943041 0.16687344 -0.22140148 0.09630076 -0.0055232514 0.14424542 -0.10582739
-0.0135015845 -0.02300919 0.08867707 0.02159983 -0.11933847 -0.23257732 0.023915928 0.043920286
0.0016064108 -0.049559187 6.6616834e-05 -0.11629048 0.027177101 0.08160943 -0.13843921 -0.040358283
0.12086564 -0.002303233 -0.1408677 0.00081117585 0.089671284 -0.11916611 0.063403994 0.11266236
0.1003406 -0.14942901 -0.034522906 -0.009174774 0.2039634 0.08267313 -0.07683958 0.23612022
0.027901739 0.076960176 0.24732266 0.103602804 -0.21264236 0.052830752 -0.30787346 -0.12852672
0.09112045 0.18151988 -0.21238445 -0.03602225 0.013245001 -0.15773733 0.027383376 -0.08642502
-0.05854376 0.070870794 0.08420462 0.1264126 -0.023213077 0.031823155 -0.111122645 0.03754056
-0.10221013 -0.076206885 -0.039699186 0.06498177 -0.07671045 0.11177509 0.17305969 0.19668072
-0.1844386 0.07013147 -0.03549953 -0.17784452 -0.08920116 0.081453666 -0.18270093 0.13918686
-0.043213204 0.0017523614 -0.16479807 0.1779138 -0.11906689 0.0715739 0.016579391 -0.20165312
-0.008138513 0.068369076 0.03876055 0.14420557 -0.14024703 -0.26192 -0.17874347 0.20911457
-0.1749806 0.104040675 0.04567884 0.1367673 0.20458992 0.05215309 -0.17399214 0.06304818
-0.07769172 -0.17539322 -0.08932545 0.2470351 0.074646324 -0.023105623 0.024719493 0.029967869
-0.029151224 0.15698788 0.0033277236 -0.01892568 0.026989926 -0.0013896899 -0.037741736 -0.017124759
00000000: bdf1 a9bd 39e6 9f3d 3cbe 4c3b f57a 193e
00000010: 9bf6 fc3d d465 17bd ea83 193e 3be1 253e
00000020: 37ca 7abe 82e7 013e a12f 563e 7678 50be
00000030: b0b3 b73a 6e84 e2bd a35f b0bd 5a45 e13c
00000040: a3e9 2abe c1b2 e23c cc84 8b3e 8c8d 12bd
00000050: eb16 e63d 1fb9 ebbc 171b 35bd eb04 febd
00000060: 4efd 033d 125f dabd d917 4fbd eb7d 6ebe
00000070: 85c0 ed3d cceb e93d 57e3 f7bd ac04 4fbe
00000080: f872 5f3e 7b7f e9bc 5e74 153e 8386 2e3e
00000090: 7054 f13b c564 413d 18f9 ac3d a877 313d
000000a0: a560 2bbe 2ae5 7abd 9c2d 9d3d 0707 99bd
000000b0: 417d b5bd 147f 7b3c 2c01 efbd ffd1 473e
000000c0: d3f8 95bd 7252 0abd ef25 0bbe 9c55 e4bd
000000d0: aaec a8bc 49fc da3c 600b cfbb 8a2d 4d3e
000000e0: 031d 933d 01e4 b53d b38d 193e 468c 37bd
000000f0: c9cf be3d 4501 f0bd 7110 51be eedd 1d3e
00000100: ace9 513e ed7c c93d 7e61 22be 409f 28be
00000110: ccd3 85bd 5b8c 71bd a1ce 2bbd 6475 543c
00000120: 4200 0abd a020 9dba 28c5 7a3e 18ef 1abe
00000130: 5e4b 1abd 0067 a03d 4159 29be 1557 023d
00000140: 6d0d 41be c04a b23d 77a1 de3c c403 2dbe
00000150: db0e a93d 88d9 1dbd fa36 09be c541 443d
00000160: 29ae 303e dd93 253e 32f6 f3bc 01b9 54be
00000170: 1d34 06be 014e 1abe ed57 aabd 6b51 bb3d
00000180: fabe 9e3d 8831 8e3d dfe0 2a3e 12b7 62be
00000190: 5539 c53d 64fc b4bb 12b5 133e 08bc d8bd
000001a0: c035 5dbc c57d bcbc 539c b53d 20f2 b03c
000001b0: ba67 f4bd c028 6ebe 56eb c33c c2e5 333d
000001c0: 348e d23a 93fe 4abd a4b4 8b38 b429 eebd
000001d0: 83a2 de3c d822 a73d 02c3 0dbe ba4e 25bd
000001e0: 6888 f73d d6f1 16bb 9f3f 10be 17a5 543a
000001f0: 94a5 b73d 5d0d f4bd f4d9 813d 86bb e63d
00000200: 5f7f cd3d eb03 19be e467 0dbd cb51 16bc
00000210: c8db 503e 8850 a93d 125e 9dbd 80c9 713e
00000220: 3092 e43c 4c9d 9d3d 2742 7d3e b52d d43d
00000230: ebbe 59be 0f65 583d 97a1 9dbe 829c 03be
00000240: 5c9d ba3d 59e0 393e 4f7b 59be 118c 13bd
00000250: 9001 593c e585 21be 1a53 e03c 9aff b0bd
00000260: 95cb 6fbd b524 913d 7973 ac3d 4e72 013e
00000270: 5a29 bebc ff58 023d 4594 e3bd 21c4 193d
00000280: 8b53 d1bd 5b12 9cbd 9d9b 22bd 2a15 853d
00000290: 5e1a 9dbd 57ea e43d 8f36 313e ac66 493e
000002a0: 79dd 3cbe 17a1 8f3d f567 11bd e01c 36be
000002b0: 19af b6bd 2ed1 a63d f415 3bbe 0087 0e3e
000002c0: 5400 31bd 7eaf e53a d3c0 28be 092f 363e
000002d0: 57d9 f3bd 5695 923d 81d1 873c 287e 4ebe
000002e0: 6657 05bc 1605 8c3d 62c3 1e3d a0aa 133e
000002f0: eb9c 0fbe 611a 86be 8708 37be 2122 563e
00000300: 1d2e 33be 4713 d53d bc19 3b3d ba0c 0c3e
00000310: 0580 513e 7a9e 553d ff2a 32be 671f 813d
00000320: d61c 9fbd 489a 33be 43f0 b6bd c5f6 7c3e
00000330: 2ce0 983d 0148 bdbc 8980 ca3c 2d7f f53c
00000340: 8cce eebc 6ec1 203e f015 5a3b 070a 9bbc
00000350: fa19 dd3c 4126 b6ba 1497 1abd 3949 8cbc

encode_modules.0.conv_in.bn.weight f4 [8]
1.0362868 0.88287383 1.0100662 1.1209127 0.89434564 0.9751088 1.0088047 1.0250909
00000000: 0ca5 843f 0504 623f d949 813f 117a 8f3f
00000010: d6f3 643f bba0 793f 8320 813f 2e36 833f

encode_modules.0.conv_in.bn.bias f4 [8]
0.11856413 -0.07993475 0.1025737 0.29491463 -0.2150095 0.012245278 0.16682018 -0.006967481
00000000: c0d1 f23d d5b4 a3bd 2912 d23d 0dff 963e
00000010: 732b 5cbe 6ba0 483c e9d2 2a3e 784f e4bb

encode_modules.0.conv_in.bn.running_mean f4 [8]
-0.007598214 0.012612429 0.0020610976 -0.0017752367 0.015336349 0.007242205 0.005747935 -0.00800554
00000000: 70fa f8bb 5da4 4e3c 7b13 073b 0faf e8ba
00000010: 4f45 7b3c 0550 ed3b 2c59 bc3b ab29 03bc

encode_modules.0.conv_in.bn.running_var f4 [8]
0.0273752 0.04708059 0.00876156 0.006909555 0.07676911 0.020226989 0.013617847 0.02042061
00000000: f541 e03c 94d7 403d a58c 0f3c 8c69 e23b
00000010: 2039 9d3d 12b3 a53c 641d 5f3c 2049 a73c

encode_modules.0.encode_modules.0.conv.weight f4 [4, 8, 3, 3]
0.105089664 -0.013793116 0.08118441 -0.010480863 0.09767026 -0.009705876 0.14425299 0.0847995
0.14676929 0.028119264 -0.05743089 -0.12568331 -0.09268817 0.026676143 -0.09045221 -0.048399046
-0.055382233 -0.012287215 0.062385917 -0.0936829 -0.0176592 0.10914121 0.11005657 -0.05915566
0.09617839 -0.11313544 -0.07982813 -0.043177627 -0.04716565 0.11804152 0.024543753 -0.053631563
0.11271894 -0.037161686 0.060892362 -0.10128599 -0.09408796 -0.013993509 0.044642225 -0.06225309
0.0094586825 0.023830391 -0.04533036 0.048486672 0.11606887 0.1219478 0.06553674 0.14609088
-0.02751897 0.10626511 0.15246256 -0.028061371 -0.06188434 0.0677292 -0.03378696 0.044105683
-0.13525039 0.08528207 -0.017505595 0.0004963481 -0.058692224 0.11154593 -0.14674981 -0.1250977
-0.13782115 0.036265645 -0.07498071 0.053744875 -0.07260594 0.03579959 0.043968987 -0.14863768
-0.034270793 -0.07192605 -0.07309454 -0.093324006 -0.041740734 -0.017359965 0.04454173 0.04460836
-0.15556903 0.05337617 -0.13510601 0.06631137 0.07560147 -0.025219157 -0.16310132 0.039723676
0.07791402 -0.14928773 0.0560146 -0.023734704 0.013965658 0.14178032 0.0047405018 -0.1245803
0.061458394 -0.045451898 -0.06790156 0.13310635 0.07098679 0.093419015 0.058597296 0.04499751
-0.113664865 -0.027841607 0.09877059 0.02610542 -0.107537135 -0.07693571 -0.043831576 -0.09712711
-0.02678076 0.10444616 0.08102585 -0.112990655 0.10547021 0.043648254 0.026566194 0.11951298
0.028543403 0.062435687 -0.038623963 0.077142596 0.021912003 0.09478228 0.1524411 0.016532015
0.009733996 0.113087215 -0.035999242 -0.09785503 -0.0052984944 -0.053939987 -0.03145949 0.076388136
-0.10312344 -0.0047694137 0.06289507 0.07093911 -0.16239725 -0.028200269 -0.16681068 -0.10172705
0.13795052 -0.0559278 0.12278168 -0.04476569 0.09867056 -0.009286298 0.044786315 0.02902117
0.09082974 0.062882215 -0.09320629 0.029067446 0.050973 -0.08687065 -0.05813054 0.11877069
0.05664762 0.032438546 0.07362573 0.09018884 0.05399054 0.17165188 0.12206178 0.017651862
0.19365148 -0.03775768 -0.037089113 0.016193502 -0.09662507 -0.09836692 0.09447459 0.017761957
-0.01293963 -0.05058275 -0.09426726 -0.06976978 0.0943097 0.047464196 -0.036864296 -0.069920555
0.09727274 -0.012470187 -0.038711723 -0.050689057 -0.046306428 0.027621215 0.13256136 0.12631367
0.20438968 0.12180489 0.10724776 0.1892167 0.033648465 -0.01752362 -0.054706957 0.05121644
0.016120188 -0.013636131 -0.12377717 0.025636321 -0.022528782 -0.09659639 0.062760144 0.042938277
-0.1886448 -0.13724656 -0.069398075 -0.021220999 0.008954205 -0.1692573 -0.06146598 -0.08994681
-0.0780444 -0.08879192 -0.02503881 -0.005375043 -0.03761377 -0.04655023 -0.011567528 -0.08319233
0.111041114 -0.032136805 0.026786227 -0.09963464 0.02184556 -0.029582584 0.016724955 -0.0105493395
0.044645503 0.07603922 0.030033534 0.119611844 0.0109108845 0.10150613 0.06109207 0.14940837
0.058967926 0.15655313 0.057733677 -0.11334492 -0.100513496 -0.015936816 -0.0353567 0.061416272
-0.10513154 -0.120936036 -0.052010655 -0.13895093 -0.031607423 -0.14425696 -0.015080155 -0.06715708
00000000: 4039 d73d 86fc 61bc 0344 a63d edb7 2bbc
00000010: 5807 c83d 6505 1fbc 0eb7 133e 5cab ad3d
00000020: b04a 163e 5f5a e63c a73c 6bbd 20b3 00be
00000030: 4cd3 bdbd ed87 da3c 023f b9bd 143e 46bd
00000040: 7bd8 62bd 5150 49bc 6088 7f3d d2dc bfbd
00000050: 07aa 90bc 6d85 df3d 5765 e13d 354d 72bd
00000060: 2df9 c43d 8eb3 e7bd ee7c a3bd 06db 30bd
00000070: c530 41bd c1bf f13d fb0f c93c c5ac 5bbd
00000080: 30d9 e63d da36 18bd 456a 793d 076f cfbd
00000090: 30b1 c0bd 0845 65bc c4da 363d 19fd 7ebd
000000a0: 97f8 1a3c f437 c33c 54ac 39bd f699 463d
000000b0: 84b5 ed3d c5bf f93d 2038 863d d998 153e
000000c0: 776f e1bc 86a1 d93d 251f 1c3e f6e0 e5bc
000000d0: 6f7a 7dbd 9bb5 8a3d 3264 0abd 29a8 343d
000000e0: 147f 0abe 5ea8 ae3d e567 8fbc 5b1d 023a
000000f0: 4267 70bd 3172 e43d 9545 16be 9d19 00be
00000100: fd20 0dbe 498b 143d 7d8f 99bd 9623 5c3d
00000110: 6cb2 94bd 97a2 123d d318 343d 7a34 18be
00000120: 885f 0cbd f74d 93bd 97b2 95bd a820 bfbd
00000130: 55f8 2abd 7c36 8ebc 6471 363d 41b7 363d
00000140: 7d4d 1fbe f9a0 5a3d 3b59 0abe 41ce 873d
00000150: f2d4 9a3d 6898 cebc 0804 27be 4bb5 223d
00000160: 6391 9f3d e2de 18be 916f 653d 486f c2bc
00000170: 37d0 643c dc2e 113e 3656 9b3b f523 ffbd
00000180: ccbb 7b3d c52b 3abd f90f 8bbd 084d 083e
00000190: 8661 913d 7852 bf3d b803 703d 4f4f 383d
000001a0: 20c9 e8bd 1514 e4bc 3c48 ca3d 09db d53c
000001b0: 6e3c dcbd 7890 9dbd bd88 33bd 94ea c6bd
000001c0: 5363 dbbc dee7 d53d e1f0 a53d a567 e7bd
000001d0: c400 d83d 83c8 323d 59a1 d93c 39c3 f43d
000001e0: dbd3 e93c 90bc 7f3d 2934 1ebd f0fc 9d3d
000001f0: cd80 b33c 361d c23d 8519 1c3e 266e 873c
00000200: 577b 1f3c 459a e73d f173 13bd 3868 c8bd
00000210: fe9e adbb 2df0 5cbd abdb 00bd 6271 9c3d
00000220: 6232 d3bd be48 9cbb 21cf 803d 8648 913d
00000230: 774b 26be 4004 e7bc 6bd0 2abe 4656 d0bd
00000240: e742 0d3e 8c14 65bd f674 fb3d 3a5c 37bd
00000250: ca13 ca3d 8f25 18bc db71 373d cebd ed3c
00000260: f104 ba3d 64c8 803d f0e2 bebd da1e ee3c
00000270: 10c9 503d 3de9 b1bd 4a1a 6ebd 0c3e f33d
00000280: 5607 683d 48de 043d 16c9 963d edb4 b83d
00000290: 2f25 5d3d 83c5 2f3e 87fb f93d a39a 903c
000002a0: 934c 463e cca7 1abd c1ea 17bd 3ca8 843c
000002b0: 5de3 c5bd 9974 c9bd e57b c13d 8681 913c
000002c0: be00 54bc dc2f 4fbd 310f c1bd 75e3 8ebd
000002d0: 7225 c13d d169 423d 04ff 16bd 8232 8fbd
000002e0: ee36 c73d c14f 4cbc 2f90 1ebd 549f 4fbd
000002f0: cfab 3dbd e345 e23c 2abe 073e 5f58 013e
00000300: 874b 513e d874 f93d b7a4 db3d 06c2 413e
00000310: f9d2 093d b28d 8fbc 6714 60bd 54c8 513d
00000320: 7c0e 843c 146a 5fbc e37e fdbd 4303 d23c
00000330: 488e b8bc 54d4 c5bd 6488 803d 0ce0 2f3d
00000340: 1a2c 41be 5d8a 0cbe 9420 8ebd a9d7 adbc
00000350: a8b4 123c c951 2dbe c0c3 7bbd 0836 b8bd
00000360: bed5 9fbd 8ad8 b5bd 311e cdbc 2121 b0bb
00000370: e610 1abd 74ab 3ebd bb85 3dbc be60 aabd
00000380: 8669 e33d e2a1 03bd ca6e db3c 3f0d ccbd
00000390: 76f5 b23c 2d57 f2bc c602 893c 23d7 2cbc
000003a0: 34de 363d 73ba 9b3d e308 f63c 0ef7 f43d
000003b0: 91c3 323c 72e2 cf3d ae3b 7a3d 82fe 183e
000003c0: 5a88 713d 774f 203e 267a 6c3d 6221 e8bd
000003d0: 05da cdbd ed8d 82bc 30d2 10bd a18f 7b3d
000003e0: 344f d7bd 50ad f7bd 2009 55bd 2749 0ebe
000003f0: c976 01bd 19b8 13be c112 77bc a789 89bd

encode_modules.0.encode_modules.0.bn.weight f4 [4]
0.9757 1.0228465 1.0290381 1.0321311
00000000: 7ac7 793f a2ec 823f 85b7 833f df1c 843f

encode_modules.0.encode_modules.0.bn.bias f4 [4]
0.06551732 0.16362995 0.16712841 0.052338675
00000000: f22d 863d 9c8e 273e b623 2b3e 1461 563d

encode_modules.0.encode_modules.0.bn.running_mean f4 [4]
0.13033195 -0.11706604 0.19582021 -0.209924
00000000: bd75 053e 52c0 efbd 1885 483e 51f6 56be

encode_modules.0.encode_modules.0.bn.running_var f4 [4]
0.2179065 0.1864677 1.0211953 0.41566917
00000000: e222 5f3e 64f1 3e3e 87b6 823f 97d2 d43e

encode_modules.0.encode_modules.1.conv.weight f4 [4, 4, 3, 3]
-0.04566945 0.12536739 0.16598761 -0.15751028 0.1516655 -0.045042973 0.0064417915 0.13690649
-0.08700113 -0.029827211 -0.10076805 0.04477054 0.09675086 -0.11898035 0.18035673 0.12020342
-0.13132371 0.1887217 -0.050231773 -0.024662698 -0.007818293 -0.09469065 -0.09118291 0.12088874
0.16033494 0.10412598 0.19362392 -0.07195436 0.02806089 0.056450978 -0.03126959 0.031306773
0.11617411 0.06081021 0.0909777 0.09573409 -0.05222508 0.000180001 0.08407622 0.049697235
0.11113084 -0.011496365 0.06274103 -0.15499605 0.15968172 -0.11649254 0.03674411 0.036062073
0.023214918 -0.038589876 0.16978537 0.15506873 0.14108244 0.058978304 0.092806175 0.18191132
0.005458333 0.120674126 0.09527568 0.068385154 -0.06342654 0.0017680508 -0.07522182 0.21714358
-0.061696917 0.2003981 0.035161342 -0.014224204 0.15964895 0.21328871 0.021338187 0.08364756
-0.052900225 0.050057385 -0.07997135 0.030242251 -0.1214083 -0.15253492 -0.024912499 0.08157417
-0.12722552 -0.18701345 -0.10819173 -0.03591435 -0.14708506 -0.05232685 -0.009928972 -0.13991386
-0.0075547253 0.13322896 -0.14817391 -0.10265476 -0.027025154 -0.067527935 -0.15030643 -0.07966838
-0.1305314 0.01761287 -0.21857518 -0.029148826 0.020512579 -0.025759554 0.14347039 -0.10123709
-0.11759633 -0.13971831 -0.061247487 0.054656245 0.03136779 -0.05673081 0.07891106 0.0016719579
0.10573403 -0.025061596 -0.074444115 -0.12159964 -0.001789811 -0.044476088 0.04412227 0.087633826
0.012345426 -0.10114682 -0.13457987 0.05268586 -0.22775452 -0.0047132033 0.102227084 0.06573628
0.10342829 0.120945185 -0.042179808 -0.14184512 -0.08951529 0.05217243 -0.03110963 0.1416846
0.11136339 0.16060707 -0.12810005 -0.062310178 -0.15289222 -0.122456565 -0.03891472 0.13795483
00000000: e40f 3bbd 4f60 003e a8f8 293e 604a 21be
00000010: 334e 1b3e fb7e 38bd aa15 d33b 3731 0c3e
00000020: a62d b2bd 3258 f4bc 7b5f cebd 5061 373d
00000030: 5125 c63d f8ab f3bd 6faf 383e 362d f63d
00000040: b979 06be 4340 413e d5bf 4dbd 6d09 cabc
00000050: 4c18 00bc 2ced c1bd 1bbe babd 8494 f73d
00000060: d82e 243e 0040 d53d 5945 463e cf5c 93bd
00000070: f4df e53c 2439 673d 8b14 00bd 883b 003d
00000080: b1ec ed3d 2014 793d 8452 ba3d 3c10 c43d
00000090: f7e9 55bd a7be 3c39 2730 ac3d 548f 4b3d
000000a0: 9198 e33d 405b 3cbc 5e7e 803d 49b7 1ebe
000000b0: 9b83 233e a493 eebd fe80 163d d3b5 133d
000000c0: 362d be3c 6b10 1ebd 37dc 2d3e 56ca 1e3e
000000d0: ea77 103e 3c93 713d 2a11 be3d f646 3a3e
000000e0: d1db b23b ff23 f73d e51f c33d 840d 8c3d
000000f0: c6e5 81bd f1bd e73a e60d 9abd e35a 5e3e
00000100: e8b5 7cbd 2935 4d3e 5705 103d a30c 69bc
00000110: 047b 233e 5b68 5a3e 6ccd ae3c 694f ab3d
00000120: e8ad 58bd f908 4d3d 05c8 a3bd 99be f73c
00000130: eaa4 f8bd 1d32 1cbe 4c15 ccbc 5c10 a73d
00000140: 6847 02be 7480 3fbe a093 ddbd ed1a 13bd
00000150: 779d 16be ae54 56bd 21ad 22bc 9445 0fbe
00000160: a18d f7bb 2c6d 083e e7ba 17be a93c d2bd
00000170: db63 ddbc 164c 8abd eee9 19be 2d29 a3bd
00000180: 06aa 05be de48 903c 2cd2 5fbe 85c9 eebc
00000190: ff09 a83c b305 d3bc e7e9 123e 6455 cfbd
000001a0: 58d6 f0bd 5112 0fbe a5de 7abd 3adf 5f3d
000001b0: 837b 003d 915e 68bd 1f9c a13d 9925 db3a
000001c0: 158b d83d fa4d cdbc 2876 98bd 3b09 f9bd
000001d0: 1798 eaba 8f2c 36bd 8eb9 343d 5d79 b33d
000001e0: 7844 4a3c 1026 cfbd 4ecf 09be 21cd 573d
000001f0: 7b38 69be 3771 9abb 6f5c d13d bea0 863d
00000200: 36d2 d33d 1cb2 f73d bcc4 2cbd d93f 11be
00000210: cb53 b7bd c2b2 553d 9fd9 febc c515 113e
00000220: 7d12 e43d 2e76 243e a92c 03be f538 7fbd
00000230: c78f 1cbe 82ca fabd 0b65 1fbd 0844 0d3e

encode_modules.0.encode_modules.1.bn.weight f4 [4]
1.0025678 0.96630925 1.034455 0.99124974
00000000: 2454 803f 0b60 773f 0569 843f 8bc2 7d3f

encode_modules.0.encode_modules.1.bn.bias f4 [4]
0.062991366 0.022957608 0.04732191 -0.01988103
00000000: 9e01 813d 9811 bc3c 9ed4 413d 8bdd a2bc

encode_modules.0.encode_modules.1.bn.running_mean f4 [4]
0.42826304 0.718849 -0.83372927 -0.11949869
00000000: 4b45 db3e 7d06 383f 486f 55bf bbbb f4bd

encode_modules.0.encode_modules.1.bn.running_var f4 [4]
0.8504394 1.8283538 1.8649461 0.61684334
00000000: 66b6 593f 7f07 ea3f 8eb6 ee3f 72e9 1d3f

encode_modules.0.encode_modules.2.conv.weight f4 [4, 4, 3, 3]
-0.0349663 -0.020228019 0.14044173 -0.15441753 0.03689346 -0.13246363 -0.112927996 0.073896706
-0.024646413 0.09945417 0.04085557 0.07509597 0.031267345 -0.04030362 -0.10173997 0.18398201
-0.13141832 -0.092245266 -0.008969896 -0.23481259 -0.0036781467 -0.13328032 -0.20939046 -0.19297098
0.015335167 0.05577529 -0.015714463 -0.019336667 0.14005354 0.1294096 0.068186216 -0.022608113
0.06442907 0.05684028 -0.08920247 0.06368548 -0.07148274 0.15888573 -0.06652169 0.13928062
-0.066104956 0.10624359 -0.016031293 0.19321257 -0.015942374 0.0927955 -0.09140471 0.07301178
-0.12601988 -0.027767353 0.010742891 0.1247976 0.17568094 0.026388977 -0.13224383 0.056491274
0.08156894 0.05341459 -0.18911976 0.10589801 -0.15334165 -0.12499803 -0.14148703 0.14874884
-0.064260855 0.16193818 0.007973352 -0.07333036 -0.13048168 -0.115572706 -0.16543275 -0.122125454
0.050501037 -0.07247948 0.011778386 0.09603402 -0.20838216 -0.049695004 -0.1578657 0.042851325
0.10140527 -0.094558135 -0.06484567 0.0764931 0.12249141 -0.1525341 -0.04968777 -0.08119239
-0.070270464 -0.025700646 -0.03345179 -0.06556731 0.26231647 0.044177316 0.17694816 0.1059448
-0.103746876 0.077037096 -0.1314156 0.08820099 0.014868342 0.10341096 0.08890574 -0.24414237
0.094235025 -0.11531931 -0.07157676 -0.121639766 0.21239455 0.18402801 -0.07365475 0.14320064
-0.076056235 0.009511499 -0.0064304853 -0.05473065 0.024125012 0.1391671 -0.05809827 0.047128104
0.088726655 0.15193707 -0.09674492 -0.09210218 -0.02533101 0.019386677 -0.04124926 -0.11741578
0.09141747 0.022625264 -0.078755565 -0.014044366 0.15857296 -0.020967552 -0.06863531 -0.10101485
0.04309798 0.14221476 0.09074894 0.019824091 -0.081404224 0.017987628 0.027619274 -0.09627184
00000000: d338 0fbd 3bb5 a5bc f5cf 0f3e a11f 1ebe
00000010: 991d 173d 8ca4 07be cb46 e7bd 2857 973d
00000020: 46e7 c9bc a1ae cb3d 2c58 273d eacb 993d
00000030: 3012 003d 6915 25bd 0c5d d0bd c865 3c3e
00000040: 8692 06be 16eb bcbd 78f6 12bc b672 70be
00000050: 100d 71bb a37a 08be 746a 56be 2f9a 45be
00000060: 5a40 7b3c a174 643d 9ebb 80bc ee67 9ebc
00000070: 326a 0f3e f383 043e 37a5 8b3d a634 b9bc
00000080: 63f3 833d 5ad1 683d c9af b6bd 886d 823d
00000090: 8b65 92bd f1b2 223e 863c 88bd 949f 0e3e
000000a0: 0962 87bd 3d96 d93d 0f54 83bc 84d9 453e
000000b0: 9599 82bc 910b be3d 6532 bbbd 3387 953d
000000c0: 5b0b 01be 5c78 e3bc f302 303c e295 ff3d
000000d0: b4e5 333e b22d d83c ed6a 07be 6563 673d
000000e0: 9e0d a73d 42c9 5a3d 9ca8 41be 0ee1 d83d
000000f0: 9805 1dbe f8fe ffbd fae1 10be 9e51 183e
00000100: 329b 83bd 1fd3 253e aaa2 023c 3a2e 96bd
00000110: fd9c 05be 62b1 ecbd 3467 29be e91c fabd
00000120: 2dda 4e3d 1f70 94bd 22fa 403c 7cad c43d
00000130: 2262 55be fd8c 4bbd 8ca7 21be df84 2f3d
00000140: 91ad cf3d b2a7 c1bd cecd 84bd 6aa8 9c3d
00000150: c7dc fa3d e631 1cbe 6785 4bbd 3248 a6bd
00000160: f6e9 8fbd 298a d2bc bf04 09bd 2748 86bd
00000170: 584e 863e 46f3 343d e631 353e 96f9 d83d
00000180: 3e79 d4bd a0c5 9d3d d091 06be b8a2 b43d
00000190: 599a 733c 20c9 d33d 3614 b63d 7500 7abe
000001a0: 4bfe c03d 882c ecbd d696 92bd 451e f9bd
000001b0: f57d 593e d771 3c3e 4dd8 96bd 30a3 123e
000001c0: 5fc3 9bbd 1ed6 1b3c d2b6 d2bb 3f2d 60bd
000001d0: d1a1 c53c d281 0e3e 74f8 6dbd 6609 413d
000001e0: 52b6 b53d 6495 1b3e 3322 c6bd 11a0 bcbd
000001f0: fa82 cfbc cfd0 9e3c fcf4 28bd af77 f0bd
00000200: 1539 bb3d 9e58 b93c 994a a1bd 571a 66bc
00000210: f360 223e 25c4 abbc ab90 8cbd e0e0 cebd
00000220: 8287 303d bfa0 113e 95da b93d 2266 a23c
00000230: 42b7 a6bd ca5a 933c d141 e23c 2c2a c5bd

encode_modules.0.encode_modules.2.bn.weight f4 [4]
1.0316672 1.0417979 0.97115403 1.0481317
00000000: ac0d 843f a259 853f 8d9d 783f 2e29 863f

encode_modules.0.encode_modules.2.bn.bias f4 [4]
0.058928274 0.057111632 -0.05170026 0.07021177
00000000: c65e 713d e3ed 693d a7c3 53bd 30cb 8f3d

encode_modules.0.encode_modules.2.bn.running_mean f4 [4]
-0.18070063 -0.018478405 -0.05941778 0.12343183
00000000: 9609 39be 0660 97bc 0f60 73bd d4c9 fc3d

encode_modules.0.encode_modules.2.bn.running_var f4 [4]
0.393219 0.37716717 0.6178935 0.5117811
00000000: 0054 c93e 0e1c c13e 452e 1e3f 1604 033f

encode_modules.0.encode_modules.3.conv.weight f4 [4, 4, 3, 3]
0.054424975 0.14682099 -0.044747204 0.120173424 0.109545514 0.17194335 -0.076093815 0.07137568
-0.08004857 0.13041179 0.02471906 -0.07705064 -0.061254025 0.06673326 -0.017622955 0.021954432
0.15585761 -0.15671931 0.09364152 -0.014159618 -0.08470488 0.06372659 0.14080982 -0.03112545
-0.09102496 0.07422149 0.06231405 -0.11369773 0.034394488 0.1721496 -0.17523828 0.08365763
0.18579903 0.052577034 0.046537656 -0.0027054357 -0.020508131 -0.16322537 0.114805035 0.088537514
-0.1689754 -0.1084938 -0.16639909 0.112712584 -0.08045418 -0.14307597 -0.20382264 -0.10746149
-0.15945351 -0.22782087 0.029454166 0.0392498 -0.13995138 -0.12827356 0.06605009 0.07276222
-0.10077278 0.059979662 -0.0058020335 0.15914586 0.09033277 -0.1082094 -0.1036699 -0.0130976215
0.09494973 0.011194033 0.06480057 -0.15646687 -0.081615806 -0.13023561 0.044997223 -0.03822937
-0.11018554 0.16293927 -0.088468246 0.09665162 0.08357388 0.01680201 0.14677148 0.083318934
0.0133630615 -0.12136629 0.0025959515 -0.14633156 -0.12384603 -0.07914882 -0.16748492 0.09294956
-0.14599398 -0.042973835 0.021074979 -0.152729 -0.13225569 0.106150486 -0.14049044 -0.01904853
-0.111504026 0.10400937 0.010741664 0.009030983 -0.031909425 -0.20802169 0.014697025 -0.11223196
0.061682526 -0.034621526 0.010642618 -0.059588987 -0.116106786 -0.09388057 0.074029185 -0.064610586
0.14887308 -0.006168015 0.18478116 -0.016334523 0.13726065 -0.12180941 -0.022004664 0.15261124
-0.09205738 0.13072108 0.08600242 -0.16936778 -0.11294761 0.095825985 -0.08362264 0.048735034
0.13187441 -0.07164226 -0.044374526 0.006562923 0.023470966 -0.056867477 0.076333925 -0.043034595
0.061585505 -0.0065000043 -0.13262281 -0.064531416 0.18439406 -0.105166055 -0.16092116 -0.1327585
00000000: b9ec 5e3d 3e58 163e d848 37bd 7c1d f63d
00000010: 6659 e03d eb11 303e 13d7 9bbd 6a2d 923d
00000020: 81f0 a3bd ab8a 053e a07f ca3c bacc 9dbd
00000030: 80e5 7abd 73ab 883d 045e 90bc c8d9 b33c
00000040: 2399 1f3e 077b 20be 20c7 bf3d befd 67bc
00000050: c179 adbd 1683 823d 7330 103e cdfa febc
00000060: 4b6b babd 7001 983d 043d 7f3d 5bda e8bd
00000070: 3ce1 0c3d fc47 303e aa71 33be b154 ab3d
00000080: 1a42 3e3e 045b 573d 459e 3e3d ae4d 31bb
00000090: ab00 a8bc 8d24 27be e71e eb3d 2853 b53d
000000a0: e307 2dbe ff31 debd 8664 2abe dbd5 e63d
000000b0: 29c5 a4bd 8282 12be e2b6 50be c514 dcbd
000000c0: c847 23be e049 69be dd49 f13c 66c4 203d
000000d0: 6a4f 0fbe 255a 03be 4545 873d 5c04 953d
000000e0: f661 cebd 3cad 753d fc1e bebb 22f7 223e
000000f0: 6300 b93d e49c ddbd e250 d4bd 6897 56bc
00000100: 0175 c23d 2d67 373c 29b6 843d da38 20be
00000110: 3026 a7bd 7c5c 05be 024f 383d 6696 1cbd
00000120: f5a8 e1bd 8dd9 263e d72e b5bd 49f1 c53d
00000130: c828 ab3d 5ea4 893c 434b 163e 1ea3 aa3d
00000140: bef0 5a3c e48e f8bd d720 2a3b f1d7 15be
00000150: fda2 fdbd c718 a2bd 2b81 2bbe 575c be3d
00000160: 727f 15be 5505 30bd 6fa5 ac3c fe64 1cbe
00000170: 096e 07be 6d65 d93d badc 0fbe aa0b 9cbc
00000180: 395c e4bd dd02 d53d cefd 2f3c b0f6 133c
00000190: 75b3 02bd a303 55be cacb 703c dfd9 e5bd
000001a0: d1a6 7c3d 4dcf 0dbd 605e 2e3c 9513 74bd
000001b0: 65c9 edbd 7544 c0bd 9d9c 973d 8e52 84bd
000001c0: 2f72 183e 0f1d cabb 4637 3d3e facf 85bc
000001d0: 0e8e 0c3e 3677 f9bd 2043 b4bc 1f46 1c3e
000001e0: 9488 bcbd bfdb 053e 0922 b03d bf6e 2dbe
000001f0: 1451 e7bd 6a40 c43d 5942 abbd 639e 473d
00000200: 160a 073e 2db9 92bd 10c2 35bd ca0d d73b
00000210: 2f46 c03c dfed 68bd f654 9c3d 0b45 30bd
00000220: 1541 7c3d fdfd d4bb 46ce 07be 0c29 84bd
00000230: ccd1 3c3e 4d61 d7bd 84c8 24be d8f1 07be

encode_modules.0.encode_modules.3.bn.weight f4 [4]
1.0585799 1.024218 0.9561176 1.0755606
00000000: 8c7f 873f 9319 833f 1fc4 743f f8ab 893f

encode_modules.0.encode_modules.3.bn.bias f4 [4]
0.0058209538 0.0015023233 0.021743 0.09609619
00000000: b3bd be3b 9be9 c43a 601e b23c 14ce c43d

encode_modules.0.encode_modules.3.bn.running_mean f4 [4]
0.27713698 -0.5155803 -0.28434268 -0.048654027
00000000: e6e4 8d3e 12fd 03bf 5d95 91be 7249 47bd

encode_modules.0.encode_modules.3.bn.running_var f4 [4]
0.6679214 2.1983929 0.62630874 0.2503491
00000000: e6fc 2a3f 78b2 0c40 c555 203f c22d 803e

encode_modules.0.encode_modules.4.conv.weight f4 [4, 4, 3, 3]
-0.11770494 -0.18663159 -0.079984635 -0.25694504 0.03628337 -0.18013577 -0.14479955 -0.030225988
-0.10910199 -0.07233358 -0.06024598 0.14983335 -0.12477874 0.10972896 0.122495264 0.065047905
-0.10582755 -0.08884515 -0.00022494922 -0.12493499 0.0849192 -0.045173965 -0.13324848 0.113912374
0.05404335 -0.1488435 -0.0042016236 0.13859282 -0.08536645 0.14040491 -0.15175232 -8.445122e-05
0.057389464 -0.12400935 -0.12832542 -0.06892472 0.09555445 0.23216425 0.014628316 0.026130933
0.10634301 0.028309602 0.087008186 0.09331749 0.15449683 0.023512132 -0.047674123 -0.19671328
0.014345209 -0.015155798 -0.02016267 0.017817186 -0.13009994 -0.058032032 0.03750779 0.05980527
-0.053150587 -0.1563872 0.02739987 -0.008521745 -0.036969632 -0.012543077 -0.009547544 0.030757325
0.20780322 -0.04809545 0.010355621 0.16446911 -0.09032591 -0.06927279 -0.15196918 0.099064775
-0.07136637 0.032467853 0.06158628 0.04885799 0.077494144 -0.06493297 -0.054042857 -0.17820302
-0.18833603 -0.1494702 0.11354696 0.07447548 -0.14058161 0.13051347 -0.078967564 -0.1335218
-0.12237003 -0.0053691654 0.038968537 0.08399724 -0.008029121 0.030788697 -0.10057054 0.06900631
0.104761034 0.1276222 -0.10460571 0.12026212 0.028667318 -0.036941092 0.01112733 -0.03593793
0.0996994 0.14837459 0.17561367 0.09129955 -0.1403056 -0.027593547 0.019838186 0.12287578
-0.004767201 -0.13260525 -0.09975465 -0.08291864 0.02590091 -0.20354497 0.021118978 -0.06355718
-0.15052296 -0.13392054 -0.14196174 0.019725276 0.04667393 -0.21357267 0.0876145 0.015176938
-0.03762455 -0.09706961 0.11212795 -0.09042049 -0.1359795 0.022307705 -0.11721159 -0.018658848
0.05723971 -0.16011208 0.1667532 -0.009709856 0.0028040519 0.027660666 -0.07814458 0.098467015
00000000: 4a0f f1bd 5a1c 3fbe fcce a3bd 4d8e 83be
00000010: df9d 143d 8375 38be 5546 14be 7e9c f7bc
00000020: dd70 dfbd a123 94bd 7dc4 76bd ea6d 193e
00000030: ff8b ffbd 94b9 e03d ccde fa3d d637 853d
00000040: 1dbc d8bd 72f4 b5bd 59e0 6bb9 ebdd ffbd
00000050: 1eea ad3d 5608 39bd 4a72 08be e44a e93d
00000060: 8f5c 5d3d 6e6a 18be c6ad 89bb 47eb 0d3e
00000070: 9bd4 aebd 4ec6 0f3e f664 1bbe 671b b1b8
00000080: 3711 6b3d 9df8 fdbd bd67 03be 6728 8dbd
00000090: 0db2 c33d 77bc 6d3e 9bab 6f3c 8a10 d63c
000000a0: 5dca d93d 8ae9 e73c 5931 b23d 3d1d bf3d
000000b0: 6b34 1e3e 849c c03c f145 43bd 356f 49be
000000c0: 2b08 6b3c 0650 78bc 2f2c a5bc 59f5 913c
000000d0: eb38 05be ffb2 6dbd c5a1 193d 5ff6 743d
000000e0: 6eb4 59bd f723 20be b175 e03c ca9e 0bbc
000000f0: 786d 17bd 7a81 4dbc 4d6d 1cbc c9f6 fb3c
00000100: 5eca 543e bcff 44bd 9faa 293c 976a 283e
00000110: cafc b8bd e4de 8dbd cf9d 1bbe 79e2 ca3d
00000120: 8828 92bd 03fd 043d e541 7c3d 511f 483d
00000130: 40b5 9e3d 94fb 84bd 0b5c 5dbd da7a 36be
00000140: 29db 40be b70e 19be 4f8b e83d 9a86 983d
00000150: a0f4 0fbe 53a5 053e bfb9 a1bd f0b9 08be
00000160: 239d fabd d3ef afbb 799d 1f3d bf06 ac3d
00000170: 938c 03bc 9438 fc3c edf7 cdbd 2e53 8d3d
00000180: f48c d63d 65af 023e 853b d6bd fd4b f63d
00000190: b9d7 ea3c 8b4f 17bd 684f 363c a733 13bd
000001a0: 332f cc3d 82ef 173e 12d4 333e 42fb ba3d
000001b0: 45ac 0fbe dd0b e2bc b183 a23c 4ca6 fb3d
000001c0: 2e36 9cbb acc9 07be 2a4c ccbd 3fd1 a9bd
000001d0: 252e d43c 186e 50be b501 ad3c 442a 82bd
000001e0: b122 1abe 7722 09be 6b5e 11be e796 a13c
000001f0: 2a2d 3f3d cbb2 5abe 3b6f b33d b1a8 783c
00000200: 331c 1abd 6fcc c6bd 57a3 e53d 612e b9bd
00000210: 363e 0bbe a6be b63c a10c f0bd 71da 98bc
00000220: 3074 6a3d 6cf4 23be 5ac1 2a3e 1616 1fbc
00000230: 2fc4 373b 9f98 e23c 440a a0bd 13a9 c93d

encode_modules.0.encode_modules.4.bn.weight f4 [4]
1.0299245 0.9914632 0.9561709 1.0219322
00000000: 91d4 833f 88d0 7d3f 9ec7 743f adce 823f

encode_modules.0.encode_modules.4.bn.bias f4 [4]
0.11250896 -0.0038915095 0.02895784 0.018784624
00000000: 196b e63d b208 7fbb fe38 ed3c 36e2 993c

encode_modules.0.encode_modules.4.bn.running_mean f4 [4]
-0.44191247 0.17385262 0.103880145 -0.29890046
00000000: 5a42 e2be 6c06 323e 1dbf d43d 7b09 99be

encode_modules.0.encode_modules.4.bn.running_var f4 [4]
1.0703628 0.7035599 0.15585437 0.09339368
00000000: a601 893f 801c 343f 4a98 1f3e 3045 bf3d

encode_modules.0.encode_modules.5.conv.weight f4 [4, 4, 3, 3]
0.0323813 0.08480187 -0.11705041 -0.24997012 -0.07328503 -0.20408218 -0.0136522455 0.009283305
0.041657545 -0.03758274 0.09706019 -0.13834855 -0.023081021 0.013800023 -0.006828375 0.014913348
0.1536628 0.08967116 0.058814153 -0.06361632 0.0065243784 0.10457964 -0.09723956 0.08949678
-0.07488481 -0.07757498 -0.048579674 0.1604902 -0.14928709 -0.011264374 -0.059670605 -0.030252734
-0.043720186 -0.023298003 -0.028499544 -0.17829514 0.07423852 -0.2408719 -0.18419193 -0.21560457
0.009197475 0.029776 0.0016789164 -0.113605075 -0.112234324 -0.028835906 -0.0269428 -0.034623887
0.21078381 0.18928286 -0.09892666 0.0931618 -0.075962566 -0.02817849 -0.060945053 -0.09181884
-0.055132452 -0.040088546 0.118143156 -0.13881956 0.036172133 -0.02120253 0.0029564218 0.13593201
0.0033425633 -0.11571793 0.1535006 0.08370096 0.0035907237 -0.09541097 0.15614632 -0.09117899
-0.06348711 0.1120339 -0.10473451 0.1588126 -0.10654029 -0.07062138 0.06440028 0.13894425
-0.105540946 -0.15928836 0.1060751 0.16745156 0.004637541 -0.1761476 0.057792928 -0.1651099
0.08650248 -0.05078081 0.046304736 -0.12874226 0.043943185 -0.011392684 -0.03305169 -0.11590503
0.04213501 0.09832147 -0.12012155 -0.03487898 -0.17934375 -0.038417112 -0.20134637 -0.05076805
-0.07016189 -0.20593809 0.008827564 0.09872728 -0.03534616 -0.09082008 -0.169094 -0.02780421
-0.052222244 0.039268512 0.09543868 0.007217607 0.11109186 0.10364412 -0.058941435 0.003311319
-0.14648673 0.061763294 -0.102457374 -0.08810979 -0.08772076 -0.13857083 0.13790198 0.07312198
-0.010647418 0.12609118 0.08909018 0.052999657 0.08751051 0.007490098 -0.12770869 -0.0010820387
0.043225918 0.07739919 -0.11303258 0.039871052 -0.08231117 -0.1821578 -0.15044376 -0.18046084
00000000: 41a2 043d 9aac ad3d 20b8 efbd 2bf8 7fbe
00000010: 7616 96bd ebfa 50be abad 5fbc 0119 183c
00000020: 1aa1 2a3d 5cf0 19bd 7ec7 c63d 3eab 0dbe
00000030: 6914 bdbc 7e19 623c 90c0 dfbb 1d57 743c
00000040: c859 1d3e 83a5 b73d 1ce7 703d 4649 82bd
00000050: 74ca d53b da2d d63d 8925 c7bd 164a b73d
00000060: 355d 99bd a2df 9ebd 7bfb 46bd 8b57 243e
00000070: b7de 18be 358e 38bc 2a69 74bd 95d4 f7bc
00000080: f013 33bd 74db bebc e077 e9bc 0093 36be
00000090: 5d0a 983d 20a7 76be cf9c 3cbe 72c7 5cbe
000000a0: 02b1 163c ccec f33c 160f dc3a c7a9 e8bd
000000b0: 1cdb e5bd 4739 ecbc 26b7 dcbc c7d1 0dbd
000000c0: b6d7 573e 5ed3 413e 109a cabd 9dcb be3d
000000d0: 4392 9bbd 94d6 e6bc 85a1 79bd 840b bcbd
000000e0: 91d2 61bd e333 24bd 0af5 f13d b726 0ebe
000000f0: 3b29 143d eeb0 adbc 87c0 413b c331 0b3e
00000100: e80e 5b3b 86fd ecbd 432f 1d3e 696b ab3d
00000110: 5952 6b3b d466 c3bd d2e4 1f3e 0dbc babd
00000120: 8805 82bd 0872 e53d 0c7f d6bd c59f 223e
00000130: cc31 dabd f1a1 90bd 4be4 833d 6747 0e3e
00000140: da25 d8bd 7d1c 23be e73d d93d 6c78 2b3e
00000150: 83f6 973b 0960 34be 47b8 6c3d 9212 29be
00000160: 3628 b13d 8aff 4fbd 09aa 3d3d 03d5 03be
00000170: c5fd 333d 61a8 3abc 3561 07bd 9e5f edbd
00000180: c395 2c3d c45c c93d 4a02 f6bd 43dd 0ebd
00000190: e3a5 37be 435b 1dbd be2d 4ebe 29f2 4fbd
000001a0: 09b1 8fbd 6fe1 52be 7da1 103c 8731 ca3d
000001b0: 23c7 10bd e1ff b9bd fa26 2dbe a8c5 e3bc
000001c0: fee6 55bd 05d8 203d 5b75 c33d ad81 ec3b
000001d0: 2184 e33d 5e43 d43d 936c 71bd b702 593b
000001e0: 9e00 16be 82fb 7c3d 2cd5 d1bd e872 b4bd
000001f0: f1a6 b3bd 83e5 0dbe 2d36 0d3e fac0 953d
00000200: 8272 2ebc 0c1e 013e ea74 b63d 2b16 593d
00000210: b638 b33d 7f6f f53b 11c6 02be 32d3 8dba
00000220: a90d 313d 7783 9e3d a07d e7bd d44f 233d
00000230: c292 a8bd 9387 3abe ee0d 1abe baca 38be

encode_modules.0.encode_modules.5.bn.weight f4 [4]
0.9994909 0.98409563 0.9942221 1.0527012
00000000: a3de 7f3f b1ed 7b3f 5785 7e3f eabe 863f

encode_modules.0.encode_modules.5.bn.bias f4 [4]
0.032230794 0.005184996 -0.013455029 0.057804227
00000000: 7004 043d e6e6 a93b 7b72 5cbc 20c4 6c3d

encode_modules.0.encode_modules.5.bn.running_mean f4 [4]
-0.2946025 -0.15888098 -0.33601263 -0.284604
00000000: 24d6 96be b2b1 22be d909 acbe 9eb7 91be

encode_modules.0.encode_modules.5.bn.running_var f4 [4]
0.08511893 0.20134412 0.1828848 0.30173787
00000000: d552 ae3d 272d 4e3e 2746 3b3e 637d 9a3e

encode_modules.0.encode_modules.6.conv.weight f4 [4, 4, 3, 3]
-0.049982194 0.17672591 0.04071433 -0.17059031 0.0020869793 0.05121346 -0.12126608 0.16987687
0.004200658 0.104044504 0.09617268 0.01233701 0.03429262 -0.05953868 -0.03672884 -0.15021789
-0.02598444 0.09698068 0.012045215 -0.0697054 -0.04378399 0.21203494 -0.14056703 0.046152297
-0.16407932 0.0045921924 0.15706678 0.054170374 -0.08087332 -0.12081556 0.10083931 0.12427765
-0.026064394 0.06904395 0.113588095 0.1736106 -0.10416647 0.13657218 0.13700297 0.104667276
-0.12932013 0.18539153 0.09704461 -0.112128906 0.03961196 0.021476166 0.088501014 -0.08670286
-0.08752556 0.13079815 -0.10878356 0.038662918 -0.030717688 0.04335095 0.069941476 0.091921456
-0.038184296 0.12711456 -0.031939298 0.0802725 0.115229785 -0.030467726 0.16063046 -0.024444515
0.15427047 0.15066145 0.013764438 0.18018502 0.19692768 -0.046918653 0.12012846 0.044548742
0.059277643 -0.1126145 -0.07812345 -0.06414891 0.025144821 0.14364327 0.122277945 0.16387971
0.0141949495 -0.0331262 -0.12009185 0.015180857 -0.17949377 0.043408576 -0.117142215 0.07744533
0.20060271 0.071297355 -0.09135341 -0.009538219 -0.050209347 0.04807391 -0.17142135 0.10086276
0.010730607 -0.107605144 0.015136928 0.068845496 0.14655018 -0.02752311 -0.13056433 0.07609776
0.077422306 -0.09479246 0.04164514 -0.074574634 0.12528718 0.13197368 0.08664562 0.018454349
-0.14670347 0.16456363 -0.058869448 0.119139284 -0.11262529 0.057248898 0.17462265 -0.09045056
-0.021957431 -0.00051295635 -0.033100627 0.006007501 -0.033553373 0.12582941 -0.056043886 -0.01761804
-0.13156675 0.06366354 -0.024496121 -0.09521553 -0.04538393 0.1454208 -0.14021549 -0.10137955
0.081277385 -0.021478277 -0.11747912 -0.0015050686 -0.14756474 0.030991057 -0.20855734 0.008159402
00000000: 21ba 4cbd a3f7 343e 12c4 263d 3aaf 2ebe
00000010: b4c5 083b 34c5 513d 5a5a f8bd 34f4 2d3e
00000020: aca5 893b 4915 d53d 2ff6 c43d 2c21 4a3c
00000030: 6b76 0c3d d5de 73bd fb70 16bd b8d2 19be
00000040: 52dd d4bc cf9d c63d 4b59 453c b4c1 8ebd
00000050: d756 33bd b01f 593e cef0 0fbe 310a 3d3d
00000060: 6904 28be 1a7a 963b 1dd6 203e c1e1 5d3d
00000070: e9a0 a5bd 266e f7bd d784 ce3d 4885 fe3d
00000080: ff84 d5bc ea66 8d3d e0a0 e83d fac6 313e
00000090: 3b55 d5bd 94d9 0b3e 824a 0c3e cc5b d63d
000000a0: 7f6c 04be 47d7 3d3e 53bf c63d d7a3 e5bd
000000b0: 2740 223d c9ee af3c 0540 b53d 4591 b1bd
000000c0: 9a40 b3bd f3ef 053e eac9 debd 025d 1e3d
000000d0: a9a3 fbbc c490 313d 7a3d 8f3d 5141 bc3d
000000e0: 2367 1cbd 522a 023e c8d2 02bd e965 a43d
000000f0: 98fd eb3d 7497 f9bc 507c 243e dd3f c8bc
00000100: 14f9 1d3e ff46 1a3e 3d84 613c 6c82 383e
00000110: 69a7 493e c62d 40bd e905 f63d be78 363d
00000120: 1dcd 723d 6ea2 e6bd 30ff 9fbd 8160 83bd
00000130: 83fc cd3c 3917 133e dc6c fa3d 15d0 273e
00000140: ef91 683c 57af 07bd b7f2 f5bd 21b9 783c
00000150: 37cd 37be 31cd 313d 42e8 efbd a89b 9e3d
00000160: cc6a 4d3e 5904 923d 7f17 bbbd 3146 1cbc
00000170: 51a8 4dbd 26e9 443d 1489 2fbe 2291 ce3d
00000180: 6ecf 2f3c 1660 dcbd e100 783c defe 8c3d
00000190: 4011 163e 2578 e1bc a8b2 05be 24d9 9b3d
000001a0: 968f 9e3d 8d22 c2bd 1894 2a3d 96ba 98bd
000001b0: 484b 003e 1c24 073e 4273 b13d 932d 973c
000001c0: 6f39 16be 5e83 283e 1721 71bd 4cff f33d
000001d0: 17a8 e6bd d27d 6a3d 48d0 323e 253e b9bd
000001e0: 12e0 b3bc eb77 06ba 8694 07bd 92da c43b
000001f0: 436f 09bd 6dd9 003e 468e 65bd b553 90bc
00000200: 6fb9 06be 0862 823d 17ac c8bc 5c00 c3bd
00000210: 80e4 39bd 31e9 143e a694 0fbe 15a0 cfbd
00000220: c274 a63d 36f3 afbc e598 f0bd b945 c5ba
00000230: 361b 17be f5e0 fd3c 0e90 55be 03af 053c

encode_modules.0.encode_modules.6.bn.weight f4 [4]
0.9674333 1.0200042 1.026157 0.99359167
00000000: b5a9 773f 7f8f 823f 1d59 833f 065c 7e3f

encode_modules.0.encode_modules.6.bn.bias f4 [4]
0.005083258 -0.010829069 0.00029607955 -0.0013527786
00000000: 7591 a63b 686c 31bc 203b 9b39 b84f b1ba

encode_modules.0.encode_modules.6.bn.running_mean f4 [4]
0.1676682 0.51168424 0.016386962 -0.10191257
00000000: 36b1 2b3e bdfd 023f f33d 863c 8ab7 d0bd

encode_modules.0.encode_modules.6.bn.running_var f4 [4]
0.105251655 0.13488029 0.22250935 0.11528674
00000000: 2e8e d73d 0f1e 0a3e 7ed9 633e 741b ec3d

encode_modules.0.decode_modules.0.conv.weight f4 [4, 8, 3, 3]
0.008012538 -0.02269632 -0.075011976 -0.102798946 0.07809599 -0.008631466 0.040704176 0.06406492
-0.0058542346 -0.11466041 -0.06271917 0.020227497 -0.08516772 0.118873805 0.08046602 0.032236315
0.05450801 -0.0023071442 0.073620684 -0.13319565 -0.05482586 0.03287063 -0.13879022 -0.010632373
0.032904387 -0.09199356 -0.15514834 0.09569207 -0.110872895 -0.1285143 -0.10089451 0.036011275
-0.06805155 -0.121065915 0.046868186 -0.028280763 -0.09939391 -0.038150605 -0.10019075 -0.08555322
0.017427694 0.014025449 0.01941507 -0.13819738 -0.048718512 0.020398967 0.09119866 0.14378798
-0.008184856 -0.13498 -0.059547916 0.03651501 -0.14136031 -0.073871635 0.101468995 -0.10550877
-0.025549876 -0.088287026 -0.07835604 -0.07617712 -0.025715822 0.077425145 0.021738697 0.029399348
0.0035505877 0.03108859 0.04727185 0.02621422 0.12433943 -0.018251766 -0.100670956 -0.09587251
-0.088220105 0.021894636 -0.037760027 0.09051043 0.055620417 -0.010092096 0.07098732 -0.08316305
0.11055255 -0.01314095 0.08387184 0.03680688 -0.033772178 0.09183581 -0.07682041 0.04682681
0.10395588 -0.045716166 -0.07798423 -0.020706667 -0.13546106 -0.042961266 -0.14875248 -0.032490652
-0.103243835 0.0032836096 -0.17598054 0.06941421 0.024740769 -0.10317193 0.04906646 0.12920903
0.05389591 0.017803034 0.0748044 0.10680065 -0.035003573 0.12801391 0.027685447 -0.06260314
-0.14374916 0.100611925 0.062030204 0.020724766 0.0063395496 0.018220073 0.1291536 0.060714364
-0.01468366 0.059020605 -0.055684436 0.059320323 -0.07817126 -0.0031040043 0.13583401 -0.06186728
-0.01311302 -0.00215485 -0.0271474 -0.08274383 0.07749934 -0.039130945 0.11048855 0.03370611
0.061473954 0.036249567 0.1778655 0.16052172 -0.006409792 -0.039365493 0.013403102 0.04489288
-0.0332405 0.098219566 -0.03866648 0.04990538 0.037270203 -0.008097362 -0.055340603 -0.13280514
-0.112224154 -0.008797738 -0.049230315 -0.11713124 -0.038925447 -0.13640384 -0.043956578 0.012088798
-0.1397789 -0.09924365 -0.045228314 0.046555806 -0.025340887 0.03569053 -0.03562883 0.06613189
-0.078731544 0.10489915 -0.07316755 -0.024496276 0.11015255 0.15247951 -0.0442475 0.12263168
0.14119792 0.08728294 -0.04200286 0.08348701 -0.1416094 0.0010615836 -0.061961755 -0.081447616
-0.07641774 0.103932336 0.03080069 0.06579434 0.054143026 0.012918631 -0.03527657 0.008575843
-0.0105591975 -0.1299777 0.006399822 0.078602865 0.044269674 0.04775818 -0.086856894 0.011997575
-0.10755008 0.065298855 -0.023650268 -0.02122074 -0.07293817 -0.10223359 0.009013089 0.026949596
-0.0028953792 0.096707255 -0.14662175 -0.07915109 -0.18749134 -0.02385669 -0.1419364 -0.031630576
0.06960886 -0.08565475 -0.10905958 0.02987786 0.037538525 -0.028230742 -0.108998656 0.060099486
0.018951345 0.0076233214 -0.05833786 -0.07888941 0.14562996 -0.02917031 0.072232045 0.12363738
0.061914384 -0.017739223 -0.053223267 -0.032877553 -0.015455554 -0.050607637 -0.019813955 -0.060055513
-0.06673559 -0.106784225 -0.12131938 -0.039957494 0.09380315 0.023285057 0.05790996 -0.025410315
0.100884125 -0.024047738 0.02333099 0.060151562 -0.071570076 -0.04459749 0.150308 0.05556905
00000000: 0547 033c a2ed b9bc e19f 99bd 4188 d2bd
00000010: caf0 9f3d fe6a 0dbc 6cb9 263d 7834 833d
00000020: e1d4 bfbb 14d3 eabd e872 80bd 23b4 a53c
00000030: 6a6c aebd 1c74 f33d 5ecb a43d 3a0a 043d
00000040: cb43 5f3d 7533 17bb 71c6 963d 7164 08be
00000050: 1591 60bd 5ba3 063d 061f 0ebe 6833 2ebc
00000060: c0c6 063d 1f67 bcbd 35df 1ebe 34fa c33d
00000070: 5411 e3bd 4199 03be c8a1 cebd 8f80 133d
00000080: 9c5e 8bbd 68f1 f7bd dbf8 3f3d 0fad e7bc
00000090: 098f cbbd cf43 1cbd cf30 cdbd 8736 afbd
000000a0: 86c4 8e3c ffca 653c 5a0c 9f3c 9d83 0dbe
000000b0: 108d 47bd bc1b a73c 5dc6 ba3d 283d 133e
000000c0: c619 06bc 3238 0abe 84e8 73bd c390 153d
000000d0: c2c0 10be 034a 97bd face cf3d fb14 d8bd
000000e0: f94d d1bc d4cf b4bd 2279 a0bd c002 9cbd
000000f0: fda9 d2bc 1391 9e3d 5a15 b23c e7d6 f03c
00000100: fab0 683b 80ad fe3c 21a0 413d 34bf d63c
00000110: aca5 fe3d ba84 95bc 932c cebd ce58 c4bd
00000120: beac b4bd 615c b33c 42aa 1abd 885d b93d
00000130: 3cd2 633d 5259 25bc cd61 913d 6451 aabd
00000140: 6069 e23d 244d 57bc 00c5 ab3d d0c2 163d
00000150: b254 0abd 6a14 bc3d 0554 9dbd 78cd 3f3d
00000160: d2e6 d43d e040 3bbd 32b6 9fbd 07a1 a9bc
00000170: 4eb6 0abe 27f8 2fbd 9252 18be eb14 05bd
00000180: 8171 d3bd d431 573b 3e34 34be 0a29 8e3d
00000190: 27ad ca3c ce4b d3bd eaf9 483d 5f4f 043e
000001a0: f5c1 5c3d abd7 913c 0d33 993d 4dba da3d
000001b0: e85f 0fbd 1416 033e 97cc e23c 1336 80bd
000001c0: fb32 13be a00d ce3d 6213 7e3d fcc6 a93c
000001d0: ffbb cf3b 4342 953c d740 043e a0af 783d
000001e0: bc93 70bc 97bf 713d 5d15 64bd def9 723d
000001f0: 4118 a0bd 8d6c 4bbb 1218 0b3e 8c68 7dbd
00000200: fed7 56bc 6238 0dbb 3964 debc 9975 a9bd
00000210: f9b7 9e3d c547 20bd d247 e23d 6b0f 0a3d
00000220: 1dcc 7b3d 6d7a 143d 6022 363e ce5f 243e
00000230: 3c09 d2bb b63d 21bd af98 5b3c 99e1 373d
00000240: 3127 08bd 5727 c93d be60 1ebd 9569 4c3d
00000250: a4a8 183d ccaa 04bc d4ac 62bd 12fe 07be
00000260: c7d5 e5bd 6324 10bc baa5 49bd 81e2 efbd
00000270: 4a70 1fbd 73ad 0bbe d00b 34bd 1810 463c
00000280: 3322 0fbe 4140 cbbd 5341 39bd 4db1 3e3d
00000290: b197 cfbc 3c30 123d 89ef 11bd 2870 873d
000002a0: 013e a1bd 5ed5 d63d ded8 95bd 6aac c8bc
000002b0: a997 e13d 9723 1c3e de3c 35bd 5126 fb3d
000002c0: 3096 103e 66c1 b23d 310b 2cbd 3dfb aa3d
000002d0: 0e02 11be d624 8b3a 9ccb 7dbd 02ce a6bd
000002e0: e780 9cbd 7ada d43d bb51 fc3c 2fbf 863d
000002f0: 14c5 5d3d aaa8 533c 2a7e 10bd b181 0c3c
00000300: 7c00 2dbc e018 05be 99b5 d13b 8afa a03d
00000310: 1e54 353d 159e 433d 07e2 b1bd 7a91 443c
00000320: 3743 dcbd 68bb 853d 35be c1bc 1ed7 adbc
00000330: 9b60 95bd d85f d1bd a3ab 133c 66c5 dc3c
00000340: 67c0 3dbb 740e c63d 0324 16be f719 a2bd
00000350: bbfd 3fbe 1b6f c3bc c757 11be 108f 01bd
00000360: 178f 8e3d c26b afbd a15a dfbd 6ac2 f43c
00000370: ffc1 193d 2844 e7bc b03a dfbd e12a 763d
00000380: da3f 9b3c 0ecd f93b aef3 6ebd c590 a1bd
00000390: 0520 153e 93f6 eebc 65ee 933d 9835 fd3d
000003a0: f099 7d3d d951 91bc a400 5abd 9daa 06bd
000003b0: 4b39 7dbc f449 4fbd e050 a2bc c5fc 75bd
000003c0: abac 88bd b0b1 dabd 4c76 f8bd 78aa 23bd
000003d0: de1b c03d 4ec0 be3c ff32 6d3d 4b29 d0bc
000003e0: 569c ce3d c3ff c4bc a220 bf3c 7c61 763d
000003f0: 5593 92bd dcab 36bd 57ea 193e 5f9c 633d

encode_modules.0.decode_modules.0.bn.weight f4 [4]
0.9893199 1.0061094 1.0553082 0.99261546
00000000: 1244 7d3f 31c8 803f 5714 873f 0c1c 7e3f

encode_modules.0.decode_modules.0.bn.bias f4 [4]
-0.001455778 0.053411324 0.07575154 0.041258555
00000000: cecf beba d5c5 5a3d a023 9b3d bbfe 283d

encode_modules.0.decode_modules.0.bn.running_mean f4 [4]
-0.45435333 0.32372776 -0.43110627 0.4646704
00000000: 00a1 e8be a5bf a53e f6b9 dcbe 47e9 ed3e

encode_modules.0.decode_modules.0.bn.running_var f4 [4]
0.43617907 0.50051767 0.4230519 0.31405908
00000000: dd52 df3e ed21 003f 429a d83e 5acc a03e

encode_modules.0.decode_modules.1.conv.weight f4 [4, 8, 3, 3]
-0.041190214 -0.1571281 0.021505583 0.0006454183 -0.08391598 -0.07840975 0.01693906 -0.15464321
0.024989625 0.07704353 -0.07403462 -0.05819968 0.099972874 0.07259591 -0.082806006 -0.084842816
-0.055352382 -0.08155702 0.16271728 0.05177959 0.03500255 0.04307262 0.054705046 0.028232967
-0.039231308 -0.05550601 -0.015762806 0.06501463 0.075414136 0.14043257 0.069325 -0.05187999
-0.02656789 -0.07803084 -0.06936061 -0.092532225 -0.18092775 -0.07748054 -0.12295649 -0.013017244
-0.13631721 0.07618881 -0.041095324 -0.08481777 -0.0062211794 -0.041007914 0.028608385 0.080752656
-0.0067023467 0.021336462 0.018297005 0.014544697 -0.1356005 0.048072163 -0.0073603177 -0.07232526
-0.022134887 0.08356466 -0.012762916 -0.062050503 -0.09542951 0.07598761 -0.0031021337 -0.15790898
-0.034784272 -0.05071828 -0.10409683 0.025547668 -0.15599504 -0.08001916 0.005829661 -0.12882738
0.08023931 0.08197487 0.032345966 -0.097334534 -0.0022543601 0.06253816 -0.034851395 -0.07465821
-0.050384883 0.0894188 0.012870277 -0.054635864 -0.11685784 -0.07005444 -0.11272802 -0.0014585895
0.03437479 0.06430226 -0.059892498 0.075257696 0.029247707 0.04120323 -0.09938628 0.034763888
-0.099239655 0.0416587 -0.1104593 0.044341136 -0.021558335 -0.16328835 -0.11250717 -0.06506016
-0.07622603 -0.07010111 -0.11127531 -0.041145064 0.046780325 0.06553927 0.088148914 0.054256108
0.056752525 -0.07592474 -0.16270934 -0.0477128 0.033988543 0.050352145 0.017244287 -0.023846477
-0.08933469 -0.10586211 -0.039404877 -0.1275777 -0.09196871 -0.066368304 -0.009108283 -0.034540135
-0.100673415 0.039095934 -0.05837261 0.022254027 -0.017468538 0.10515973 -0.08416967 0.024345081
0.11005517 0.02022824 -0.04961868 -0.023746857 0.12795553 0.043687537 0.06422513 0.077782415
0.08533632 -0.10745972 0.021620398 -0.067617066 -0.021424051 0.033421837 -0.065239534 -0.107686825
0.011366179 -0.024856534 -0.16584086 -0.094535165 -0.1490421 -0.15968612 -0.12630744 0.081899315
-0.114746004 -0.15334882 -0.021335255 0.13423307 0.059026424 0.0726508 -0.021653052 0.11717132
-0.10628377 -0.10658762 -0.04192954 -0.085610956 -0.10374408 -0.10779109 -0.038448837 -0.12028799
0.09434414 -0.07533762 -0.018329972 -0.032543298 0.0141131105 0.0976366 0.07783154 -0.06761027
0.061916016 0.055114985 -0.07561441 -0.068455376 -0.05131687 -0.04261861 0.007874943 0.011756145
0.0524501 0.071052 -0.052979734 -0.030391954 0.017362066 -0.10258692 -0.13277665 -0.025053957
-0.061556093 0.044175003 0.07262127 -0.14722238 -0.14008874 -0.10319034 0.018265186 0.06756433
-0.027393179 0.074857816 0.039516237 0.07690467 0.105314955 0.058503766 -0.12794192 -0.0033840307
0.053467702 0.07867262 -0.086592995 0.04403452 -0.019504562 0.0006713578 -0.12295968 0.06854991
-0.095089 -0.02718303 0.068630636 0.14576711 -0.06841014 0.0027101282 -0.05869812 -0.092452936
0.007346656 0.0022309206 0.085527465 0.064596705 0.1695391 0.12860104 0.06629412 0.004827195
-0.04303814 -0.036875505 -0.052076 -0.084715895 -0.012696828 0.0059680343 -0.057513464 0.0729327
-0.014192035 -0.019886654 -0.060232192 0.067079045 -0.09270484 -0.11687044 0.063196406 0.017884253
00000000: 12b7 28bd 30e6 20be 7a2c b03c 4a31 293a
00000010: 24dc abbd 4a95 a0bd c9c3 8a3c ca5a 1ebe
00000020: 0bb7 cc3c 00c9 9d3d 769f 97bd ca62 6ebd
00000030: 94be cc3d 2aad 943d 3296 a9bd 12c2 adbd
00000040: 2eb9 62bd 5e07 a7bd 5c9f 263e d616 543d
00000050: d55e 0f3d ea6c 303d 6612 603d d348 e73c
00000060: 02b1 20bd 455a 63bd 0021 81bc 6426 853d
00000070: ba72 9a3d 8ecd 0f3e 44fa 8d3d 1d80 54bd
00000080: e7a4 d9bc a2ce 9fbd ef0c 8ebd 8981 bdbd
00000090: 2045 39be 1eae 9ebd 9dd0 fbbd 4746 55bc
000000a0: bd96 0bbe e108 9c3d 9253 28bd f0b4 adbd
000000b0: 09db cbbb eaf7 27bd 225c ea3c a661 a53d
000000c0: 5c9f dbbb cec9 ae3c 9ae3 953c e14c 6e3c
000000d0: dcda 0abe 51e7 443d d22e f1bb 441f 94bd
000000e0: 3954 b5bc f323 ab3d 8d1b 51bc ab28 7ebd
000000f0: 8c70 c3bd 649f 9b3d 2b4d 4bbb e4b2 21be
00000100: f479 0ebd f9bd 4fbd b830 d5bd 5849 d13c
00000110: 2abd 1fbe 16e1 a3bd be06 bf3b 53eb 03be
00000120: 8254 a43d 71e2 a73d 347d 043d 5457 c7bd
00000130: e3bd 13bb 0214 803d 56c0 0ebd 67e6 98bd
00000140: 6160 4ebd 3421 b73d dbdd 523c dbc9 5fbd
00000150: 2a53 efbd b478 8fbd f3dd e6bd 242e bfba
00000160: 94cc 0c3d e7b0 833d d651 75bd b520 9a3d
00000170: e398 ef3c b8c4 283d 098b cbbd 9464 0e3d
00000180: 293e cbbd 50a2 2a3d 7c38 e2bd 0d9f 353d
00000190: 1b9b b0bc 1035 27be 296a e6bd 433e 85bd
000001a0: 651c 9cbd 2c91 8fbd 4fe4 e3bd ba87 28bd
000001b0: ba9c 3f3d 7439 863d 6b87 b43d a73b 5e3d
000001c0: 5675 683d 6e7e 9bbd 479d 26be 7f6e 43bd
000001d0: 9237 0b3d 0d3e 4e3d e443 8d3c b059 c3bc
000001e0: 1bf5 b6bd 3cce d8bd 0267 21bd bba3 02be
000001f0: 175a bcbd 1bec 87bd e83a 15bc f579 0dbd
00000200: dd2d cebd 0f23 203d 1e18 6fbd 144e b63c
00000210: 2e1a 8fbc fc5d d73d 2661 acbd 566f c73c
00000220: 9b64 e13d b2b5 a53c f53c 4bbd c588 c2bc
00000230: c606 033e b4f1 323d 7788 833d 634c 9f3d
00000240: cfc4 ae3d d713 dcbd 431d b13c d17a 8abd
00000250: 7e81 afbc 56e5 083d 4e9c 85bd e98a dcbd
00000260: 3639 3a3c ee9f cbbc 30d2 29be a79b c1bd
00000270: 7e9e 18be c284 23be bd56 01be d4ba a73d
00000280: f4ff eabd 7907 1dbe 46c7 aebc 6574 093e
00000290: b1c5 713d f1c9 943d be61 b1bc 84f7 ef3d
000002a0: 4eab d9bd 9c4a dabd 4fbe 2bbd cc54 afbd
000002b0: c777 d4bd 93c1 dcbd 877c 1dbd 8d59 f6bd
000002c0: 8037 c13d 9c4a 9abd bd28 96bc 1f4c 05bd
000002d0: ad3a 673c b3f5 c73d 2466 9f3d 4177 8abd
000002e0: a69b 7d3d 40c0 613d badb 9abd 5532 8cbd
000002f0: a331 52bd da90 2ebd e805 013c d99c 403c
00000300: ebd5 563d b683 913d 4701 59bd 8cf8 f8bc
00000310: e43a 8e3c 1719 d2bd 9af6 07be f53d cdbc
00000320: 3e22 7cbd d9f0 343d 76ba 943d 77c1 16be
00000330: 6c73 0fbe 7555 d3bd dfa0 953c 2b5f 8a3d
00000340: a967 e0bc 0e4f 993d c7db 213d 3280 9d3d
00000350: 5eaf d73d a5a1 6f3d 3503 03be 9dc6 5dbb
00000360: f300 5b3d 1c1f a13d ab57 b1bd 8a5d 343d
00000370: 08c8 9fbc 0ffe 2f3a 49d2 fbbd e563 8c3d
00000380: 06be c2bd f2ae debc 388e 8c3d f943 153e
00000390: 9e1a 8cbd 689c 313b 716d 70bd f757 bdbd
000003a0: 38bc f03b a334 123b 0629 af3d 474b 843d
000003b0: a89b 2d3e feaf 033e 36c5 873d 722d 9e3b
000003c0: c348 30bd c50a 17bd a54d 55bd 877f adbd
000003d0: 5b06 50bc 808f c33b 3d93 6bbd bd5d 953d
000003e0: b685 68bc 56e9 a2bc 08b6 76bd bd60 893d
000003f0: 09dc bdbd c559 efbd 1e6d 813d ff81 923c

encode_modules.0.decode_modules.1.bn.weight f4 [4]
0.98074913 0.9545684 1.0154687 1.0088774
00000000: 6012 7b3f 985e 743f e1fa 813f e522 813f

encode_modules.0.decode_modules.1.bn.bias f4 [4]
-0.026893811 -0.011058276 0.05735787 0.025177192
00000000: 6950 dcbc c52d 35bc 16f0 6a3d 6640 ce3c

encode_modules.0.decode_modules.1.bn.running_mean f4 [4]
-0.46467835 -0.3762521 -0.521632 0.08920054
00000000: 52ea edbe 1ea4 c0be ad89 05bf c6ae b63d

encode_modules.0.decode_modules.1.bn.running_var f4 [4]
0.08596459 0.58542424 0.88281184 0.19623753
00000000: 340e b03d 5dde 153f f5ff 613f 7ef2 483e
