results_IRSTD-1k/S_IoU-0.6583_nIoU-0.6440_Fa-0.00001044_Pd-0.93266.pth (torch, 553814 bytes, 814 tensors)

encode_modules.0.conv_in.conv.weight f4 [8, 3, 3, 3]
00000000: 4ba6 943d c3e6 17be eb6d a6bc cc7e 803d
00000010: aaf9 77bd 52d6 743d 2781 8f3d b304 823d
00000020: 71fd 21be 5b71 d1bd 4552 ca3d 1394 653d
00000030: 91f0 063e 03a0 2c3e f70d 35bc 4b6d 503d
00000040: ff60 dd3c 39e0 f3bd 977e 5f3e 31ed b7bd
00000050: bb65 4fbe 9fb0 073e 1a79 6b3d 9964 863c
00000060: 0fd6 bebc 3182 0bbd 1058 6ebe 03d2 55be
00000070: d06a 3b3e 216f 033e d007 d4bc c73a c23c
00000080: 37e1 63bd 3b5c e7bd 4d47 95be feaa 853b
00000090: 64bc 503d b163 3f3e c14f 713d cddb db3d
000000a0: 0f82 d8bd d484 413d 3b12 05be e9df e8bd
000000b0: 3eb7 6fbe c713 783d 487c 5fbd 7a4c b03d
000000c0: d670 40be 7101 7a3c a8ae b33d 9264 083b
000000d0: ee39 48bd f7e1 b6bb 2f9d 143e edb4 d63a
000000e0: d807 e03c b35f 0c3d 4910 0f3e 506e fabd
000000f0: b439 353e 1910 c33d a803 68bd 69eb 18bd
00000100: cbb8 48bd 445f 46be 6642 123d c132 df3d
00000110: f419 41be 864e 3a3e c829 2d3e ca86 52bd
00000120: 4cf5 d1bc 5ee6 8abd 3d7c c9bd 5bd1 06bd
00000130: fb53 15be 2e56 c2ba e248 603e cac2 34be
00000140: 5633 e9bd 3b14 1fbe a602 f5bd f519 6b3e
00000150: 2438 9cbd dc59 adbd 1727 4a3e 046b 66bd
00000160: 2f13 1b3e 28ef 2d3d 72fe 36be 6bbe 03bd
00000170: 6986 fcbc 039f 263d 1f73 3b3e fb47 303e
00000180: 7101 a83c 36b2 4fbe ee14 2b3e 6c54 26be
00000190: 2a5d 463e 9968 9fbd 127d ffbd 956f 06be
000001a0: 6b8f 833d 533f 04be cac1 003e fdf0 99bd
000001b0: eb15 313c f98c ebbc 2508 32be ac4d e1bd
000001c0: 5a2d 83bd 330d 0fbe ec90 5f3d d49d 62bc
000001d0: d05a 253e c005 403e 14e9 39be 2f09 983d
000001e0: fbd8 563b 8df4 efbc c0a1 28be 6f10 bc3c
000001f0: 3723 cabc 8d19 603e 2dc4 4e3d 6f38 eebd
00000200: e0f9 2abd 68c7 403e 6a54 183d 08b4 27be
00000210: c004 763e cae4 53bd a6b7 0abe 8f1d ccbd
00000220: 6b57 443e b69d 1dbe 0f67 da3d 41fa 843e
00000230: 06f4 e7bd e13e 50bd d8e2 0b3d 5627 d0bd
00000240: cb26 a03d 9da4 203e d5ba 12be 8808 5ebc
00000250: 0446 b53e 19d3 24bd b7a7 27be 0618 233d
00000260: 8c9f 913d 6f46 00be 55bc 003e 0157 3d3e
00000270: 0906 793c 08c4 9f3e bfb1 18be 4d66 ddbd
00000280: 4175 bf3b aa08 26be 2641 18be ab54 2cbe
00000290: d904 e0bc 7f8c a63d 6ab0 c83d 9888 04bc
000002a0: ceea 053e 65ee 9c3d ae88 c63d d55e 42bd
000002b0: 1d6d 57be fada 93bc 188f 7e3e 8706 183a
000002c0: 8869 07bd 0cf6 cc3c faea 7cbd 888c e33d
000002d0: 3742 053e 0efb d6bd 16f3 2c3d d96d 663d
000002e0: d285 263e 3b24 073e 65a8 523d df70 323e
000002f0: 7abe ed3d e20f 363d 6b5e dcbc a376 e43d
00000300: 969e f0bd 80f6 69bd 68fd 9b3d b7ea fdbd
00000310: 07ea 9eba 07be ae3d a7f8 d3bd 3ffb 5cbe
00000320: e9cb 07be 6811 fc3d a81a 2cbe 3e33 34be
00000330: 0277 0f3e 7d0b 3c3e 9e09 603e b814 c03d
00000340: 3e64 06be 0c6f 1cbe e819 af3d c373 2ebe
00000350: 5f2c edbc 66b7 a53d 19eb 603e ee01 553e
0.0725828 -0.14834122 -0.020316085 0.062741846 -0.060540833 0.059774704 0.07007056 0.063485526
-0.15819336 -0.10226699 0.09878973 0.056049418 0.13177706 0.16857915 -0.011050693 0.05088548
0.02702379 -0.119080015 0.21825634 -0.089807875 -0.20253651 0.1325097 0.05748854 0.01640539
-0.02329543 -0.034059707 -0.2327578 -0.20880894 0.18302464 0.12835361 -0.025882632 0.023709668
-0.055634703 -0.112968884 -0.2915596 0.0040792217 0.050960913 0.18690373 0.05891395 0.10735283
-0.10571682 0.047245815 -0.12995236 -0.113708325 -0.23409745 0.060565736 -0.054561883 0.08608337
-0.18793043 0.015259133 0.087735474 0.0020811898 -0.04888337 -0.0055811363 0.14513086 0.0016380824
0.02734749 0.034270953 0.13971056 -0.12228072 0.17697793 0.09524555 -0.056644112 -0.03733388
-0.049004357 -0.19372278 0.035707854 0.108983524 -0.18857557 0.18194017 0.1691047 -0.051398076
-0.025629662 -0.0678222 -0.0983815 -0.0329145 -0.14582817 -0.0014826709 0.21902803 -0.17652431
-0.11386745 -0.15535061 -0.11963396 0.2295912 -0.076278955 -0.08464405 0.19741474 -0.0562544
0.15144037 0.042464405 -0.178705 -0.03216402 -0.03082581 0.04067899 0.18305634 0.17214958
0.0205085 -0.20282826 0.16707203 -0.16243142 0.19371477 -0.07783622 -0.12475027 -0.13128503
0.06423839 -0.12914781 0.12573925 -0.07516668 0.010808448 -0.028753744 -0.1738592 -0.11001143
-0.064051345 -0.13969879 0.054581568 -0.0138315745 0.16147923 0.18752193 -0.18155318 0.07423627
0.003278314 -0.029291416 -0.16467953 0.022957055 -0.024674995 0.21884747 0.050480057 -0.116318576
-0.041742206 0.18826067 0.03718988 -0.1637727 0.2402525 -0.051731862 -0.13546619 -0.09966575
0.19173972 -0.15392193 0.10664188 0.2597218 -0.11325841 -0.050841216 0.034151882 -0.10163753
0.07819899 0.15687795 -0.14329083 -0.013551839 0.3540498 -0.04024038 -0.16372572 0.039817832
0.07110509 -0.12526868 0.12571843 0.1849022 0.015199193 0.31204247 -0.14911555 -0.10810528
0.005842835 -0.16214243 -0.14868602 -0.16829173 -0.027346062 0.08132266 0.09799273 -0.008089207
0.13077852 0.07662658 0.09694038 -0.04745372 -0.21037717 -0.018048752 0.24859273 0.00057993125
-0.033059627 0.025019668 -0.06174753 0.111107886 0.1301354 -0.10497104 0.042224012 0.056257103
0.16261986 0.13197415 0.051430125 0.1742587 0.11608596 0.04444874 -0.02690049 0.11155441
-0.11748998 -0.057119846 0.07616693 -0.12398284 -0.0012124189 0.085323386 -0.10350161 -0.21580218
-0.1326138 0.123080075 -0.16807044 -0.17597672 0.14010242 0.18363757 0.21878669 0.09378952
-0.13124177 -0.15276736 0.08549863 -0.17036347 -0.028951822 0.08091621 0.21964683 0.20801517

encode_modules.0.conv_in.bn.weight f4 [8]
00000000: 1daf 863f 8f2e 7e3f b154 803f e74d 883f
00000010: cac6 743f 366c 7d3f cef6 733f 28ab 763f
1.052219 0.9928979 1.0025846 1.0648774 0.9561583 0.9899324 0.9529847 0.96354914

encode_modules.0.conv_in.bn.bias f4 [8]
00000000: b0f6 463e 120b 923d 76e6 8b3e b183 4f3e
00000010: b2c8 45bd 65b3 633d 5300 0d3e 0d48 0c39
0.19430041 0.07131018 0.27324265 0.2026508 -0.0482871 0.055591006 0.13769655 0.00013378281

encode_modules.0.conv_in.bn.running_mean f4 [8]
00000000: 9dc3 1dbc 828b 803d fef9 833b 63b8 a23b
00000010: 141e bd3c be62 78bd f2b9 dabd 55ec efbb
-0.009629157 0.06276609 0.004027604 0.0049658283 0.023085631 -0.060641043 -0.106799975 -0.007321874

encode_modules.0.conv_in.bn.running_var f4 [8]
00000000: 5eb6 543c fb5a 903e 3ce1 233c a185 233c
00000010: 3c2c 283d 3faf 853e c7cb 493f 3837 623c
0.012982933 0.28194413 0.0100024305 0.00998059 0.04105781 0.26110265 0.78826565 0.0138071105

encode_modules.0.encode_modules.0.conv.weight f4 [4, 8, 3, 3]
00000000: 245a 38bd 8ebc 353b 6359 a93d 87ba 8fbd
00000010: fd40 14be 2413 10be 38aa 943c f731 13be
00000020: 56f2 2abe 25f8 3e3e ec57 823d 78a1 72b8
00000030: 4ff7 363d 7c90 143e 6776 bfbd dea8 a53d
00000040: 56f9 663d 8e65 0dbd 85ff 1cbe 899f 08be
00000050: 2eac 52bd 123d 9e3c f9d3 b4bd d224 ba3d
00000060: 1018 d53c c983 053e 752c 043e c7b2 cd3c
00000070: e745 443d f69d e73d a09b c4bd 11de f53d
00000080: c924 313e 78ae b8bd 73a3 ae3c 2ca2 7c3d
00000090: 4810 84bd e004 d3bc 4623 96bd e74f 57bc
000000a0: da22 0ebe 1b52 3cbd 30ae b5bd e919 f1bc
000000b0: d25a aebd a60c d43d b003 86bd 47db a0bd
000000c0: 5e3c eabd b2ee 34bd 2577 183c 62ba 5b3d
000000d0: 1dd6 ebbd 3991 9fbd 67d2 cfbd 441d 9bbd
000000e0: 3a5d 72bd 1d27 4e3c bacd ed3b 45a3 4ebd
000000f0: 3bf8 ab3d b05b 5d3c 4f5e 1a3d 7d0a 04be
00000100: 686c 9e3d 3c1c d03d 7ba2 f03d 6429 d83d
00000110: 2b44 80bd a742 8c3c 7dbd c03d 9fa0 1e3c
00000120: e058 e13d 7230 a33d 7656 ef3d 0ac3 913e
00000130: 93ba 013e f0d7 7cbd f681 9d3d 6306 1e3d
00000140: 8c9b d6bd 74ec bbbd e203 893d 74de 013d
00000150: c4ba 033c d9a4 07bd 2cd8 c43d c044 fa3c
00000160: 9903 57bc 7c7d 843c 5658 073e 0c5b b43d
00000170: ac5e 11be b625 ca3d 14c6 673d 80ec f5bb
00000180: 7a17 c0bd 26d0 96bc 0eb1 80bc 4ffb cc3d
00000190: f515 57bd b1fa 0dbe eb15 1f3d 8d83 403d
000001a0: 697c a8bd c781 b3bd c4e7 28bd e7ed e5bc
000001b0: 29c4 f1bc 51c6 053d e7cc 773c b97b aabd
000001c0: 6ca9 10bd 0992 1d3e d108 d8bd b43b 183d
000001d0: 071f 5a3c a747 b0bd 0c71 b0bd edec 863d
000001e0: 6489 cbbd 685b d13c 0ad7 babd cfcf 83bd
000001f0: 62dc afbd 4e49 9e3d 4526 56bd 1948 403d
00000200: 3b7c 13be 2d92 e5bb 23d3 973d 239c 6b3d
00000210: 41e4 f3bc 19e4 21bd 92a3 15bd fe35 d43c
00000220: 7339 f2bd 0061 78bd fac0 acbb 5dcb a03d
00000230: e5a2 b5bb d561 3abd cf50 043e 4a8d 4abc
00000240: eb18 63bd 3edf 5dbc 48af 443e 2e71 4abd
00000250: 5ae2 973d af6b bfbb 45bb 05be f273 92bd
00000260: 927d bfbd 756c ecbc f89c ff3c c7b5 9cbc
00000270: 3a44 a0bd 5c43 21be b2d1 1fbe bf42 b5bd
00000280: f8c2 d2bd 19a6 93bd 73fc 65bc 79e4 843d
00000290: a8bb 97bd 0a5f da3d 18e2 813d 4bb6 22bd
000002a0: 3928 3c3d 8018 94bd d9d7 10bd a5e5 dabc
000002b0: 5c06 0c3e a520 f1bd 7a6d e8bc a77f 7ebd
000002c0: 7d7c a33d aec9 4bbd f5d6 bcbc 7936 8bbd
000002d0: dc65 10bd 0069 b9bc ffe8 2e3d 514b 293d
000002e0: 10c6 cdbd 5d20 9a3d 3d9d c6bd ce7d 9c3c
000002f0: 4b12 d8bd 6616 413b ae65 6e3e f0dc 463c
00000300: b9a5 273c 0dcb 3f3e be0f 2c3e 259c 0abe
00000310: 51b4 9d3d 7e19 5bbd b284 f43d f598 543d
00000320: e393 933d 224b 413d 1c82 2f3d b84b 7fbd
00000330: 4f33 bdbc 46a6 28be 3c5d febd 2976 0f3d
00000340: e075 233d d62f 85bd 9f8b 25be a63f 26bd
00000350: 21ac 1b3c b138 1cbe e074 36bd c52b a8bd
00000360: 039a 3e3d 5214 893c 14d0 493e 40a5 77bd
00000370: f52e 233e cf3a 46bd b016 c4bd b09a 693d
00000380: 65b2 293e 8b6b 62bd 3e27 e03c f9db ef3d
00000390: 0f0d dabc d9f5 0e3d fe3b 793c e44c 15bd
000003a0: 72d4 e6bd d164 663d 5011 abbd fef6 3bbc
000003b0: d2a4 873d a51d f03d 1ba6 f43d 767f 113e
000003c0: 308c c6bd 3f54 b13d adee c5bc a976 abbd
000003d0: a55b acbd 5e02 cebd 3ed1 323e 8e41 94bd
000003e0: 7fe1 91bc 83b4 543e be0a 9abd 840c 8cbd
000003f0: e2c5 9dbd ed10 a63d 4706 42bd cb91 44bd
-0.04500784 0.0027730796 0.08269002 -0.07017999 -0.14477916 -0.14069802 0.018147573 -0.14374529
-0.16694006 0.18649347 0.06364426 -5.7847676e-05 0.044669446 0.14508241 -0.09348755 0.080888495
0.05639013 -0.03452068 -0.15331848 -0.13342108 -0.051433735 0.01931623 -0.08829493 0.09089054
0.02601245 0.13038553 0.12907584 0.025109662 0.047918227 0.113094255 -0.095999956 0.120052464
0.17299189 -0.09017652 0.021318173 0.061678097 -0.06448418 -0.02575916 -0.073309466 -0.013141609
-0.13880482 -0.04597674 -0.08871114 -0.0294313 -0.08513416 0.10353975 -0.06543672 -0.07854324
-0.114372954 -0.04417295 0.00930575 0.053644545 -0.11515448 -0.07791371 -0.10147553 -0.07573941
-0.05917094 0.0125825675 0.0072571905 -0.050448675 0.083969556 0.01351063 0.037687596 -0.12894626
0.077355206 0.10161635 0.11749741 0.1055477 -0.06263002 0.017121626 0.09411142 0.00968185
0.1100328 0.079682246 0.11686413 0.28469115 0.12668829 -0.06172937 0.07690804 0.03858031
-0.10478887 -0.09175959 0.06690194 0.03170629 0.008040134 -0.033116195 0.09611544 0.03055036
-0.013123416 0.016173117 0.13217291 0.08806428 -0.1419627 0.09870474 0.056585386 -0.0075049996
-0.09379478 -0.0184098 -0.015709426 0.10008871 -0.052511174 -0.13865162 0.038839262 0.047000457
-0.08226854 -0.087649874 -0.041236654 -0.028067542 -0.029512482 0.032659832 0.015124536 -0.083243795
-0.035317823 0.15387739 -0.105485566 0.037166312 0.013313062 -0.086074166 -0.08615312 0.06588159
-0.099383146 0.025556281 -0.09123047 -0.06436121 -0.085869566 0.077288255 -0.05228259 0.046943758
-0.14402859 -0.007005951 0.07413318 0.05752195 -0.029771926 -0.03952417 -0.036532946 0.025904652
-0.11827364 -0.06063938 -0.005272028 0.078512885 -0.0055431 -0.045503456 0.12921451 -0.0123627875
-0.055443686 -0.013541995 0.1920749 -0.049424343 0.0741622 -0.0058416943 -0.13059719 -0.07151021
-0.093501225 -0.02886031 0.031202778 -0.019129647 -0.07825513 -0.15748352 -0.15607336 -0.088506214
-0.102910936 -0.07209415 -0.014037239 0.0648889 -0.074088395 0.106626585 0.06341952 -0.03972463
0.045936797 -0.072312355 -0.0353621 -0.026720831 0.13674301 -0.117738046 -0.028372515 -0.062133458
0.07982729 -0.049752884 -0.023051718 -0.06797499 -0.03525339 -0.022633076 0.04270267 0.041331593
-0.10047543 0.07525704 -0.096979596 0.019102957 -0.10550364 0.0029462813 0.23280975 0.012137637
0.010232382 0.18729801 0.1680288 -0.13536127 0.07700408 -0.053491108 0.11939372 0.051903684
0.072059415 0.047190793 0.04284869 -0.06232807 -0.023095755 -0.16469678 -0.12420127 0.035024796
0.039907336 -0.065032646 -0.16166542 -0.040588044 0.009501488 -0.15256001 -0.044545054 -0.082114734
0.046533596 0.016733322 0.19708282 -0.06046033 0.15935881 -0.048395928 -0.0957464 0.057032287
0.16571958 -0.055278342 0.027362462 0.11711878 -0.026617555 0.034902427 0.015212057 -0.03645028
-0.112709895 0.05624849 -0.083529115 -0.011472462 0.06623234 0.11724404 0.119457446 0.14208779
-0.096947074 0.08658647 -0.024161661 -0.08372242 -0.08415917 -0.10059045 0.17462632 -0.07239066
-0.01780772 0.20771985 -0.0752158 -0.06838325 -0.07703759 0.08108697 -0.047369268 -0.0479906

encode_modules.0.encode_modules.0.bn.weight f4 [4]
00000000: 6b0e 863f 4fb0 833f 1010 7f3f 3421 783f
1.047315 1.028818 0.99633884 0.96925664

encode_modules.0.encode_modules.0.bn.bias f4 [4]
00000000: 6516 e43d ae83 6cbd 661b 933d 9cb1 50bd
0.11137084 -0.057742767 0.0718296 -0.05095063

encode_modules.0.encode_modules.0.bn.running_mean f4 [4]
00000000: e141 74be b19e a13d cf1a cdbe 8540 823f
-0.23853256 0.07891596 -0.40059516 1.017594

encode_modules.0.encode_modules.0.bn.running_var f4 [4]
00000000: 786a 203f 772f 413e 5a73 8b3e c157 dc3f
0.6266246 0.18865763 0.27236444 1.721428

encode_modules.0.encode_modules.1.conv.weight f4 [4, 4, 3, 3]
00000000: 70f8 31be 604e 0cbe 7f86 3ebe 2b1a fdbc
00000010: 3a4d 7b3c 61f8 2abe f45c 10bd 7b91 d53d
00000020: 4e52 e4bd c32b fb3d ad96 0bbe 0566 d4bd
00000030: 71ea f73d 7988 edbc e32b 14be 25b4 423b
00000040: 7c92 4cbd 5c5e bc3d 11c6 643d abef 7c3d
00000050: e003 473e b07d 543d 176f a0bd b69b 923a
00000060: 7a4d ddbd 155e 8abd 8ba8 1ebe 43f0 3c3e
00000070: 1b21 06bd 03ac 1e3c f296 8dbd 4aa2 0a3d
00000080: 1772 41be 0b74 c43d f831 85bc 41f4 823d
00000090: 22de a7bd de86 5abd 9ca9 67be 98e2 31bd
000000a0: f6f0 67be c94c fc3c 0c18 4bbe 0bf9 cebd
000000b0: a106 46be 526e db3d 4200 07bc 16ad cf3d
000000c0: ddc6 d4bd 1b08 173e 2620 cdbd e7bf 7abd
000000d0: 7f96 cb3c 41ea 033e c6cd 2dbe 7639 e9bd
000000e0: 326f 093d c2dc bc3d 7937 db3b 3e47 9abc
000000f0: b4ac fb3d 1d75 093d 24e6 05be a47e 2ebd
00000100: 8abd 813d ace8 ccbc 336b 4a3e e732 88bd
00000110: a6f2 debd 0cb1 c13d 52b1 983d f7eb da3d
00000120: 1d52 d43d 4c6c a5bd 551d e5bd 7dba 973d
00000130: 2d2a 1d3e 8509 2fbe f83f 1a3e d966 7c3e
00000140: 0178 dd3d 9d7f 203d 3a11 423d 21c7 14be
00000150: 3ea6 ecba 5785 b43d 845f 713d 8981 363c
00000160: 3fa0 7cbe f49b 04be 75d2 0c3c ccad 10bb
00000170: 5e80 a53d 29ba 083e f189 303e 0a75 54bd
00000180: 1487 bdbd cd1d 01be ef8f ebba 7d10 273e
00000190: e225 043e b5a9 8ebd 454b 80bd 6746 97bd
000001a0: 9bce bdbd e594 ff3c 64fe b73d f94a 50ba
000001b0: 87a0 a63b f40a 823d 06ec 0bbe 18fd f73d
000001c0: b850 c0bc 1506 53be 737e 1a3e 1a9d 72bd
000001d0: 3a75 16bd ba44 3dbd 265c 25be 617e 70be
000001e0: 556e 0f3e d8d5 7e3d 4ef4 b3bd ef11 00bd
000001f0: 952a cb3d 4c3a 8fbd fa0f 333d 7e37 8b3d
00000200: d3d9 1abd c835 0ebe 9a31 3fbd f0c9 993d
00000210: 4746 e7bd f39c d43d 3f1b f93d e1de 66bd
00000220: d564 16be 3842 92bd abda 04bd 6c02 5d3d
00000230: 63c6 09bc 6113 4b3e dbe3 2b3e 24b7 0c3d
-0.17379928 -0.13701773 -0.18605994 -0.030896267 0.0153382365 -0.16696312 -0.035244897 0.10428139
-0.11148511 0.12264206 -0.13631697 -0.10371021 0.12105263 -0.02899574 -0.14469866 0.0029709425
-0.049944386 0.09197685 0.055852953 0.061752003 0.19435072 0.051877677 -0.07833689 0.0011185321
-0.10805793 -0.06756226 -0.15493982 0.18451028 -0.032746416 0.0096845655 -0.06913556 0.033846177
-0.18891178 0.09592446 -0.016259179 0.06394244 -0.08196665 -0.053351276 -0.22623295 -0.043428987
-0.22650513 0.030798333 -0.19833392 -0.10106095 -0.19338466 0.10714401 -0.008239808 0.101404354
-0.10389493 0.14749186 -0.100158975 -0.06121817 0.024852036 0.1288233 -0.16973028 -0.11387913
0.03355331 0.09221794 0.0066899625 -0.018832799 0.122888 0.033558954 -0.13076073 -0.042601243
0.0633498 -0.02501329 0.19767456 -0.06650334 -0.10886125 0.09457597 0.07455696 0.10689538
0.10367224 -0.080772966 -0.11187235 0.07408617 0.1534812 -0.17093475 0.15063465 0.24648608
0.108139046 0.0391842 0.04737971 -0.14529087 -0.0018054915 0.08814495 0.05892898 0.011139282
-0.24670504 -0.12950116 0.008595099 -0.0022076247 0.08081125 0.13352264 0.1724012 -0.05186943
-0.0925428 -0.12609024 -0.0017971973 0.16314884 0.12905076 -0.06965963 -0.062643565 -0.07386475
-0.092679225 0.031198928 0.08984068 -0.0007945742 0.0050850543 0.063497454 -0.13664255 0.12108821
-0.02347599 -0.20607789 0.15087299 -0.059231855 -0.03673289 -0.04620812 -0.16148433 -0.2348571
0.14006932 0.062215656 -0.08786832 -0.031267103 0.09920231 -0.06993541 0.04371641 0.06797694
-0.03780539 -0.13887703 -0.046678163 0.0750922 -0.11292701 0.10381498 0.121634 -0.056364898
-0.14686902 -0.071415365 -0.0324351 0.053957388 -0.0084091155 0.19831611 0.16786139 0.034354344

encode_modules.0.encode_modules.1.bn.weight f4 [4]
00000000: ab15 893f 2cbe 8a3f 8d44 7f3f 690c 833f
1.0709738 1.0839286 0.99713975 1.0238162

encode_modules.0.encode_modules.1.bn.bias f4 [4]
00000000: fbb8 a73c 6f24 603d 1766 11bd f072 f03d
0.020473948 0.054722246 -0.03549775 0.117406726

encode_modules.0.encode_modules.1.bn.running_mean f4 [4]
00000000: a673 cbbe ec3e eabe bb6c 8a3e 1b06 73bd
-0.3973667 -0.4575113 0.2703608 -0.059331995

encode_modules.0.encode_modules.1.bn.running_var f4 [4]
00000000: 83c5 803e 29e8 ef3e 05c0 103e 7185 683e
0.2515069 0.46856812 0.1413575 0.22707154

encode_modules.0.encode_modules.2.conv.weight f4 [4, 4, 3, 3]
00000000: f216 433d 9dcc ecbd 6ff4 363d 358a 463e
00000010: 5d0b e23d 6d78 623d 496e 0d3e efe0 00bd
00000020: 9566 223d 7ca3 1fbe d3d0 a13d 4e16 193d
00000030: ebe9 4cbc a4fa 5b3d 5e62 253d 700d dfbd
00000040: f103 1e3e 985b 66bd ec78 70be 62da 25be
00000050: 9eaf 1cbe 8cb4 5bbc bbdf 04be 2ea3 40bd
00000060: d071 653e 6b9d 523d c033 2a3e 49e8 b1bd
00000070: 8a06 b33d 11fe b23c 1e37 403e 004f 593e
00000080: c763 643d e057 5abc 2feb 9a3d 81e0 a3bc
00000090: c40a 4c3e 7cd1 353e 5752 fc3d 4537 94bd
000000a0: 08c4 353e 257c 1abe 76c8 34bd 17e4 71bd
000000b0: e409 3a3c 3411 01be caa3 e1bc 27c2 033e
000000c0: 3477 c13d c1da 843d 63f3 bebd 048c 12bd
000000d0: 8a95 aabd e131 093d 8d83 273d fda3 9e3d
000000e0: a43e 6e3d b9b3 87bd 385f 45be 3957 e8bd
000000f0: d5b2 cdbc afe7 0b3e 0698 4c3e 7c7b 40bd
00000100: 9e39 03be 4e12 1d3e ebd5 14be d3ad 0c3e
00000110: 303c 173e 40ab 37bc 6627 5bbd 87c5 683e
00000120: e425 cfbc feb6 87bc 4330 8ebd 9c81 8cbb
00000130: fa8a 8c3d 5c7d bc3d 6f2a a43d 2552 84bd
00000140: c0ea 9a3b 127b 48be e090 853c 236d 5fbe
00000150: fde5 113e 2a1a f8bc 6453 a1bd e0f3 0b3e
00000160: 9c5e c6bc fbc2 173e 7085 53bd 363e e3bd
00000170: 700a bf3d 5a6b a2bd 8549 1c3e f6e6 10be
00000180: 8b71 9ebd 7200 c83c e341 bbbc d191 043e
00000190: 3afe e4bd 7c6b ae3c dfdb 90bd 1a3b a83c
000001a0: 4840 523e 6d7a 68bd ebd2 6d3e b862 4b3e
000001b0: 2e44 04bd 7a9d acbc 0116 613c 4ee7 7d3e
000001c0: 718f b53d 9432 c6bd e818 523a 5b21 7f3e
000001d0: 9473 bebd f488 a33c ea96 ec3d 1f3f babd
000001e0: 7ba2 1a3e d25e 7b3d 8c3e af3d 84a9 953d
000001f0: 9251 ca3d b8c7 7a3d 1884 f9bd 26d2 d5bd
00000200: 90d0 81bd f5dd 22bd 21ed 30be 3129 6cbe
00000210: cb04 c7bc 3b50 11be 94f8 26bd 6161 42be
00000220: 672d 253c 034f 72bd e96c 103b 4783 33be
00000230: 701c 3ebe 97c6 983d c7db ca3b f879 b63d
0.047629304 -0.115624644 0.044666704 0.1938866 0.110373236 0.05529063 0.13811602 -0.031464513
0.03964861 -0.15589708 0.07901158 0.037374787 -0.012506942 0.053705826 0.040377013 -0.10891235
0.15431191 -0.056239694 -0.23483628 -0.16196588 -0.15301368 -0.013409745 -0.12975971 -0.04703062
0.22406697 0.051419657 0.16621304 -0.08686883 0.087414816 0.021849664 0.18771026 0.21221542
0.055759218 -0.013326615 0.07564389 -0.020004513 0.19925982 0.17755693 0.123203926 -0.07237104
0.17750561 -0.1508642 -0.044136487 -0.059055414 0.011354897 -0.12604219 -0.027543921 0.12867032
0.09446564 0.064870365 -0.09323766 -0.03577806 -0.083293036 0.033494834 0.04089694 0.07746122
0.058165208 -0.06626076 -0.19274604 -0.113447614 -0.025109688 0.13662599 0.19979867 -0.046992764
-0.12814948 0.15339014 -0.14534728 0.13738184 0.14769053 -0.011210263 -0.05350437 0.227316
-0.025286622 -0.01656675 -0.06942799 -0.0042879116 0.06862445 0.09203598 0.08015906 -0.0646098
0.0047276914 -0.19578198 0.016304433 -0.21818976 0.1424789 -0.030285913 -0.078772336 0.1366725
-0.024215035 0.14820473 -0.051640928 -0.1109585 0.09328163 -0.07930632 0.1526242 -0.14150605
-0.077365 0.024414275 -0.022858566 0.1294625 -0.11181302 0.021291487 -0.07073187 0.020535994
0.20532334 -0.05675738 0.2322499 0.19861877 -0.032291584 -0.021071184 0.013738156 0.24795267
0.0886525 -0.09677616 0.00080145756 0.24915068 -0.092993885 0.019962765 0.11552222 -0.09094071
0.15101044 0.061369725 0.08556852 0.07307723 0.098788396 0.061225623 -0.12183398 -0.10440473
-0.06338608 -0.039762456 -0.17277957 -0.23062588 -0.024294278 -0.14190762 -0.040764406 -0.1898246
0.010081626 -0.059157383 0.0022037572 -0.17530547 -0.18565536 0.07459753 0.0061907503 0.089099824

encode_modules.0.encode_modules.2.bn.weight f4 [4]
00000000: 64a7 813f 6959 7c3f 77eb 833f 2e49 7f3f
1.0129209 0.9857393 1.0306233 0.9972104

encode_modules.0.encode_modules.2.bn.bias f4 [4]
00000000: 98b1 643c ad90 31bd 473f b8bc 43d6 c93d
0.013958357 -0.043350864 -0.02249111 0.0985532

encode_modules.0.encode_modules.2.bn.running_mean f4 [4]
00000000: d23e af3e 7e25 943e dfb2 013e 5dd2 f4bc
0.34227616 0.28934854 0.1266589 -0.029885465

encode_modules.0.encode_modules.2.bn.running_var f4 [4]
00000000: 17e5 db3e abc2 3e3e 8103 003e b15d 153f
0.4294822 0.18628947 0.12501337 0.58346087

encode_modules.0.encode_modules.3.conv.weight f4 [4, 4, 3, 3]
00000000: be27 febd 9470 47bc ec26 e93d bf4c 1dbe
00000010: ac56 8a3d ad85 13be 34e8 c43c efdf 0dbd
00000020: e33f 56bd 89a0 5fbc e60a 16be c86f d3bd
00000030: 1237 7bbe 24ed 14be 5021 643c 9923 0abe
00000040: 2588 5abe 70bb 333d 676f 7a3d 1d9f 0cbc
00000050: d51b bbbc fce2 823c 594b 153e d270 973d
00000060: f0e8 4bbe fd3c 963c ba26 083e ad1a 053e
00000070: 4acb 2c3e 90b0 693b 6cb1 d73d bfb2 1f3e
00000080: 7627 3e3d 0ed4 9cbd 7843 3abd e2cd e53d
00000090: c0da 34bc 8f1d 1bbe 38b9 50be b250 38be
000000a0: e11e 74bd 1e72 e5bd 0f33 31bc d0f7 03be
000000b0: 0073 ab3c 08b5 913d a973 11be 5358 2fbe
000000c0: 9da1 37be 7ede 15bc cae4 443b 5e31 673c
000000d0: 387e 28be f862 3b3d 6b92 0ebc a165 46be
000000e0: bfaa 8abb 31e3 a4bc 4df8 24be 476d 0abe
000000f0: b9fd 103e 32b9 073e 6ee5 f9bd bcc2 603d
00000100: 83c4 c23d ba6e 66bd 5176 ba3b a452 e3bd
00000110: 8d24 11bd c3e9 b93d 8e85 1b3e 6765 debd
00000120: 6c88 fb3c 9733 283e 8261 0b3e 29eb 64bd
00000130: b177 9bbd 7e73 743b ce7d 1b3e ce3f 813d
00000140: c837 aebd f4a8 6d3d 7165 b7bc 18d7 af3c
00000150: 1219 b03c a100 6b3d d85c 7ebd 75e4 c43d
00000160: f445 7dbd 60f1 e539 a6f1 bdbd bc3c fbbd
00000170: a9b3 1cbd 4446 dbbd 6798 00bd 9524 8abd
00000180: 58ce bd3d fc66 e8bd c3b7 6bbe 8e34 6cbe
00000190: 277a 1d3d 17c0 523e 3314 32be 2999 2cbd
000001a0: 851b 0f3e 8310 b33d 707c 90bd d598 ccbd
000001b0: 3210 e63d 0455 d73c b365 003e e506 0ebe
000001c0: c455 3a3e 3ced 6e3e 9f05 e8bc 6087 133e
000001d0: b545 a93d 8961 d73c 1e7d 1abe 048a 3c3d
000001e0: 2d22 b93d 1625 5fbc d30d a33c 8abe 713e
000001f0: 3e10 c03d 7730 593d 15e5 963d 6b2a b93c
00000200: a635 41be 88fb 393e b0df a33e 7ceb 883d
00000210: 5c82 24bd 538f c8bc c11f 5f3d 2939 17bd
00000220: 9bb7 1fbe 4c66 353a 16f8 40bd 7bbe 4ebd
00000230: 33a0 e03d 6d6c 203e 8caf 98bd 7189 64be
-0.12409924 -0.012172837 0.11384377 -0.15361308 0.067548126 -0.14406462 0.024036504 -0.034637388
-0.05230702 -0.013649114 -0.14652595 -0.10324055 -0.24532726 -0.14543587 0.013923958 -0.13490142
-0.21340998 0.043879926 0.061141398 -0.008582857 -0.02284042 0.015977375 0.14579524 0.07394566
-0.19913077 0.018339628 0.13296023 0.12998457 0.16874424 0.0035658218 0.105318874 0.1559553
0.04642435 -0.07657634 -0.0454745 0.1122091 -0.011038482 -0.15147994 -0.20383155 -0.17999533
-0.05959976 -0.11203407 -0.010815396 -0.12887502 0.02092886 0.07114607 -0.14204277 -0.17123537
-0.17932744 -0.009147285 0.0030043595 0.014110891 -0.16454399 0.04574868 -0.008701901 -0.19374706
-0.0042317803 -0.020127865 -0.16110344 -0.13518248 0.14159288 0.1325424 -0.12201963 0.054873213
0.09510138 -0.05625794 0.005690374 -0.11099747 -0.03543525 0.0907779 0.15187666 -0.10859185
0.0307047 0.1642593 0.13611415 -0.05588833 -0.07591189 0.0037300284 0.1518471 0.06310998
-0.08506733 0.058022454 -0.022387238 0.02146487 0.02149633 0.057373647 -0.06210026 0.09613887
-0.06183429 0.00043858122 -0.092746064 -0.122674435 -0.038257275 -0.107067615 -0.031395342 -0.06745259
0.092678726 -0.11347768 -0.23019318 -0.23066923 0.03844657 0.20581089 -0.17390518 -0.042138252
0.13975342 0.08743384 -0.070549846 -0.09990088 0.11233558 0.026285656 0.12538795 -0.13869818
0.1819678 0.23332685 -0.028322993 0.1440711 0.08265249 0.026291626 -0.15086791 0.04603006
0.09039722 -0.013619682 0.019904053 0.23607841 0.09378098 0.053024735 0.07367913 0.022603234
-0.18868122 0.18162358 0.32006598 0.0668554 -0.040163383 -0.024482405 0.054473642 -0.036919747
-0.15597384 0.00069198455 -0.047111593 -0.050474625 0.109680556 0.15666361 -0.07455358 -0.22318055

encode_modules.0.encode_modules.3.bn.weight f4 [4]
00000000: 33fe 5c3f 22c6 893f f7c2 7d3f c409 873f
0.8632538 1.076359 0.9912562 1.0549855

encode_modules.0.encode_modules.3.bn.bias f4 [4]
00000000: ca52 62bd 7c68 6e3d 91a2 c73d a612 293d
-0.055254735 0.058205113 0.09747804 0.04127755

encode_modules.0.encode_modules.3.bn.running_mean f4 [4]
00000000: 9583 81be 7182 61bf 9ae0 74be d780 333f
-0.25295702 -0.8808966 -0.23913804 0.7011847

encode_modules.0.encode_modules.3.bn.running_var f4 [4]
00000000: 13e3 083f ad05 0740 2a60 843e cb0e c03f
0.5347149 2.1097214 0.25854617 1.5004514

encode_modules.0.encode_modules.4.conv.weight f4 [4, 4, 3, 3]
00000000: 222f 0f3e 7d04 b43d 156e 54be a8dc b13a
00000010: 7b79 25be 9066 b73c f51d 483d b069 213c
00000020: 9094 a4bd cadf 083e 7b28 e83c 59f6 09be
00000030: 65c3 babd 9dfa a23d 8954 f3bc 955a 903d
00000040: 0f66 573e 763f 0abe 3683 e7bd 3088 f83d
00000050: 55fb c2bd 523e 023d 5f8c 333d 0876 2dbe
00000060: d88d 633d 355c e3bd 84eb 3ebe a242 d1bd
00000070: bf10 86bd bce5 373e 5da3 2a3e 77d8 cc3d
00000080: fa16 fc3d bdb5 a93d 7570 0d3e 3fbe 5d3e
00000090: 08c1 3f3c 221b ccbb 8229 0e3e 4229 81bd
000000a0: 0715 123e e5d6 b63c 9687 a83b 8bb7 87bd
000000b0: 49bc 133e 7daf e23d e5c6 c63d d3e5 3d3e
000000c0: f233 873d f21f af3b 489e 883b 93ee 503d
000000d0: 829a f2bd 8c7c 80bc f919 10be 04d4 a23c
000000e0: db06 163e 8593 c63d d855 0b3e 4cce 0ebe
000000f0: b968 e3bc 7b8b 053e 4751 c23c 695a 633d
00000100: 0615 a03d 0635 2abe 4d17 a4bc 49fd b1bc
00000110: d4fa c93d 8184 313e f38f 0cbe 681b 31be
00000120: c6a2 f03b e357 e43d f848 103c 6e29 9dbd
00000130: 2626 f93c 3849 013e f01f d13d 47c3 463d
00000140: f9c7 153e 0797 dfbd 25c5 b7bd c721 83be
00000150: ca06 e3bd e2ee 3ebe 7de5 78bd 30d2 373d
00000160: 9e93 e33d e7ce 5f3d 978c 3abd 59aa eabd
00000170: 7ccb d33d 5e09 0cbe 9661 413d e49b 6e3d
00000180: 78a5 093c 8537 9a3c 81dd 403e cb8a 243e
00000190: 1602 8cbd 35a9 95ba 2276 783e 4103 f1bd
000001a0: 5159 2fbd dfc1 e73b d504 1e3e 63a7 03be
000001b0: d52c 973d dfb4 d2bd 834a d03d a658 0dbe
000001c0: 76a6 a9bd f53d 0bbd ce50 8fbd 072b 8e3d
000001d0: 9577 90bc 1d04 b13d d2c0 25be 0e08 ddbd
000001e0: ed49 27be e353 debd 7b30 a9bd 24da efbd
000001f0: 96cb 973d d761 a43b a991 e63c 5c3d 63be
00000200: a7fc 683c 4e23 2e3d ea7b c9bc 5874 28bd
00000210: 6a04 513e d568 373e 4ea5 793d 6080 89bc
00000220: c352 1d3e 7b9a 15ba 28d5 c3bd 97b6 ca3d
00000230: 18a7 6c3d b614 c93d 31b7 82be d713 eabd
0.13982823 0.087899186 -0.20745118 0.0013569789 -0.16159622 0.022387773 0.048856694 0.009851858
-0.080361485 0.13366619 0.028339615 -0.1347288 -0.091193 0.07957957 -0.029703395 0.07048527
0.21035026 -0.13500771 -0.113043234 0.12135351 -0.09520594 0.031797715 0.04383504 -0.16939557
0.055555195 -0.111015715 -0.1864453 -0.10217787 -0.06546163 0.1795873 0.1666388 0.10002225
0.1230907 0.08286617 0.1381243 0.21654604 0.011703737 -0.0062288204 0.13883021 -0.063066974
0.14265834 0.022319267 0.005143116 -0.06626805 0.14427294 0.11068628 0.09705905 0.18544702
0.06601705 0.0053443843 0.004169259 0.051008772 -0.11845876 -0.015684389 -0.14072408 0.019876488
0.14651053 0.09696106 0.13606966 -0.13945884 -0.027759897 0.13041489 0.023720397 0.055506144
0.0781651 -0.1662179 -0.020030642 -0.021727221 0.09862295 0.17335702 -0.13726787 -0.17295611
0.007343623 0.111495756 0.00880646 -0.07673918 0.030413698 0.12625587 0.1021117 0.048526075
0.14627065 -0.10917478 -0.08973149 -0.25611708 -0.11085279 -0.18645814 -0.060765732 0.044878185
0.1111214 0.054640677 -0.045544233 -0.114582725 0.10341546 -0.13675448 0.047212206 0.058254138
0.008401267 0.018825302 0.18834497 0.1606857 -0.06836335 -0.0011418225 0.24263814 -0.11768199
-0.04280979 0.007072672 0.15431531 -0.12856822 0.07381598 -0.10288405 0.10170462 -0.13803348
-0.08283703 -0.033994634 -0.06997834 0.069418006 -0.017635146 0.08643363 -0.16186836 -0.10792552
-0.16336794 -0.10855844 -0.082612 -0.11711529 0.07411878 0.005016546 0.028145628 -0.22191375
0.014220393 0.042514138 -0.02459522 -0.04112658 0.2041184 0.17911084 0.060948662 -0.016784847
0.15363602 -0.00057069183 -0.09562141 0.098981075 0.05777654 0.098184034 -0.2553039 -0.114295654

encode_modules.0.encode_modules.4.bn.weight f4 [4]
00000000: db95 753f e9e5 873f 211e 723f dfc0 883f
0.95931786 1.0617038 0.94577223 1.068386

encode_modules.0.encode_modules.4.bn.bias f4 [4]
00000000: 5268 e1bc dd1c 653d 7133 c43c f47d 8c3d
-0.027515564 0.05593573 0.02395031 0.06859961

encode_modules.0.encode_modules.4.bn.running_mean f4 [4]
00000000: 83b9 773e 2c36 9e3e 1684 d23c 1cbe 64be
0.24191861 0.30900705 0.02569775 -0.22338146

encode_modules.0.encode_modules.4.bn.running_var f4 [4]
00000000: cf51 1c3f e26f 133e 92a4 3b3e d7bd 193e
0.6106233 0.14398149 0.18324497 0.15013824

encode_modules.0.encode_modules.5.conv.weight f4 [4, 4, 3, 3]
00000000: f91a 103e b98d ad3c efec 263e a245 0c3e
00000010: 793d 5dbc a57e 9bbc 4d70 a0bd 843e d1bd
00000020: 04e2 0d3e 9321 51be 1428 14be f109 87be
00000030: 7f66 8d3d 9abf e1bd 83ef babc 91ab 65bc
00000040: 0d2d 853c c9d1 0ebe ca73 a73d 55cd ab3d
00000050: ebf5 89bc ecad 343c fd92 7fbd c379 aa3d
00000060: 58a2 2e3e c799 cc3d a1a9 81bc e92c 133e
00000070: a1c7 4c3d 1166 393e 8565 013e 0f37 243e
00000080: 6e82 733e b574 103d b9ec 0bbe 32c7 ae3d
00000090: 8d21 98bd 49ff 0b3e c2a7 6c3c 986a 06bd
000000a0: 7fd7 c83d c3a9 a7bc 9a87 59bd e107 143e
000000b0: e56c 00bd 2252 6c3e 0956 07be dac5 1e3d
000000c0: ac9f 2c3e 0ce3 1f3a 8444 133e 9ee2 b4bd
000000d0: 86c0 00bd 5bfa 44bd d8ee 0cbe 6425 f8bd
000000e0: eb2a 023d dea4 9cbc b868 34bd 8235 94bd
000000f0: df84 453d 68df 8e3d 4ad6 03be f263 303e
00000100: 31d6 723d 6856 18bd 3265 b8bd a649 973e
00000110: 091d 243d bd58 0d3e 137f 8c3d e1e5 a73d
00000120: aeb3 b93c b502 743d 05a7 cb3d 1791 17be
00000130: fac7 1f3d 3315 30be edeb c63d 63b6 26be
00000140: 4613 dd3d c8bf 8bbe f8b0 74be 9b07 bfbe
00000150: d14b d3bd 58c1 fabc 3f96 3abe 3a4a e43d
00000160: 39ba ffbd dc5b 1dbe 4d7b 073e 758c 12be
00000170: 4d18 f03d be4d 0e3e 5ba5 d93d fe6f a5bd
00000180: bb00 b3bd 7351 083e dc6c 95bd 93ba 4b3e
00000190: 5595 cc3d cc7e 353d 4ec5 15be cd40 debd
000001a0: 9470 ad3d 16b0 14bc 1f7b 0b3d 32f2 fe3d
000001b0: 8051 59bc 8f88 c93d b716 d8bd 01df 8f3b
000001c0: e6d2 0a3e cc5d 283e 1337 8b3e 78e7 743e
000001d0: f13f d93d 16f4 8f3d 9468 9f3d 4531 2cbb
000001e0: 4713 02be 41e0 12be 58ec 15be e435 a6bd
000001f0: a3e4 9bbd b795 113e 298f c33b b137 b73d
00000200: ca4a d53d aafc e23b 8a54 bdbd ff5c 4d3e
00000210: 3260 d73d 3317 adbc 3964 383e 7a25 e73d
00000220: 6c9e f7bb 22d1 f3bd 76a7 c63d 2bd4 77bd
00000230: 1cd5 81bc 1292 143e e6a3 983d 01f7 06be
0.14072789 0.021185743 0.1630132 0.13698438 -0.013503426 -0.018981287 -0.0783392 -0.10217002
0.1385575 -0.20422964 -0.14468414 -0.26374772 0.06904315 -0.11022873 -0.022819286 -0.014017955
0.016256833 -0.13947214 0.08176382 0.08388773 -0.016840896 0.011027794 -0.06239604 0.083240055
0.17054117 0.09990268 -0.015827956 0.143726 0.04999507 0.18105341 0.12636383 0.16036628
0.23780224 0.03526755 -0.13664521 0.08534087 -0.07428274 0.13671602 0.014444293 -0.0328165
0.098067276 -0.02046669 -0.053107835 0.1445613 -0.03135385 0.23078206 -0.13216414 0.038762905
0.16857785 0.0006099201 0.14381605 -0.08832286 -0.031433605 -0.04809032 -0.13762987 -0.12116507
0.03177921 -0.019121584 -0.04404518 -0.07236768 0.04822242 0.06976205 -0.12874714 0.17225626
0.0592863 -0.03719178 -0.090036765 0.29548377 0.040066753 0.13803382 0.06860175 0.08198143
0.022668686 0.059572894 0.09943966 -0.14801441 0.039009072 -0.17195587 0.09712968 -0.16280513
0.10794692 -0.27294755 -0.23895633 -0.3731049 -0.10317195 -0.030609772 -0.18221377 0.1114697
-0.12486691 -0.15367073 0.1323063 -0.14311393 0.11723385 0.13896844 0.10627242 -0.080780014
-0.08740374 0.1331232 -0.07296154 0.19895391 0.0998942 0.044310376 -0.14626047 -0.108522035
0.08468738 -0.009075185 0.034052964 0.12448539 -0.01326406 0.098404996 -0.105512075 0.004390598
0.13557014 0.1644203 0.27190456 0.23916423 0.10607899 0.070289776 0.077836186 -0.0026274484
-0.12702666 -0.14343359 -0.14640939 -0.081157476 -0.07611968 0.14217268 0.0059679938 0.08946169
0.104146555 0.0069270926 -0.0924464 0.20055006 0.10516395 -0.021129226 0.18006982 0.11286445
-0.007556727 -0.11905123 0.096999094 -0.060505074 -0.015848689 0.14508846 0.07453136 -0.13180162

encode_modules.0.encode_modules.5.bn.weight f4 [4]
00000000: 1f70 813f 99ff 703f 76d2 823f 6e4d 823f
1.0112342 0.9414001 1.0220478 1.017988

encode_modules.0.encode_modules.5.bn.bias f4 [4]
00000000: 3b84 c3bc a90d debd 9bd5 bebc d116 a3bc
-0.023866763 -0.10842449 -0.023295214 -0.01990834

encode_modules.0.encode_modules.5.bn.running_mean f4 [4]
00000000: 693f d43e 02d6 eb3e 00c3 02bf c9c2 0b3f
0.41454628 0.46061713 -0.51078796 0.54594094

encode_modules.0.encode_modules.5.bn.running_var f4 [4]
00000000: b496 af3f 16f9 a43e 5b8b 263f f4e1 bf3f
1.3717866 0.32221287 0.6505639 1.499083

encode_modules.0.encode_modules.6.conv.weight f4 [4, 4, 3, 3]
00000000: 7e9a 0f3e 617e 013d 7e45 babb 98d0 a3bd
00000010: 437f 89bd 4972 553d 9e2b 9fbd ffab 8c3d
00000020: c835 0c3e 00ad 71be 16a3 45be 5578 9dbe
00000030: 0d00 8ebc cbaf 6c3c 2de5 353b f2c9 ff3c
00000040: c781 a13c 0b5f 4cbe 4007 9fbc 222a 153b
00000050: 8e27 e93d 52d2 723d dfd1 ee3d a90c aa3d
00000060: a465 6e3b 749c a2bc f1bd c73d 5dea bf3d
00000070: b97f 313d d658 99bd b73a 113d 65b9 fd3d
00000080: 78ad d83d b868 f93d 8933 dbbd e4ec b4bd
00000090: cbcb a9bc 93fc 44ba b919 01be b417 c13d
000000a0: cbfa 2c3e b51a 0f3e 3bcb d43d 07eb eb3d
000000b0: 4f53 96bd 74a0 edbd 169d 983d a539 ecbd
000000c0: a729 2dbe 1401 b03d 4d71 fe3c e26a 25bc
000000d0: cdf5 1bbc 553e dbbd e916 83bc a5f2 4c3b
000000e0: 45a4 1c3e e883 6b3b 7205 bbbd 545c 8dbd
000000f0: 2946 453e cd2e dfba 1fac c73d 3c91 783d
00000100: 81bc ba3c e893 e8bd c29d 18be 7b19 5f3c
00000110: 86ca 62bd 6cfe ae3e b9a1 b33e bec9 1c3e
00000120: 4bab 82bd e2af 1dbd e852 45be 63ba 6fbe
00000130: 7401 aa3d 21ba d2bd bad1 483d ada5 a33d
00000140: 1c26 95bd eed3 343d fb2b fc3d c56d 14bd
00000150: 1fab 8fbd ee31 edbd 17a4 4bbc 0f87 95be
00000160: dd87 023e dd4c e93d a178 e5bd 4180 863c
00000170: 6cd5 56bd 26b7 dd3d af79 4ebd 2944 46be
00000180: 5c2c 033d bf33 13bc 0a9c 8fbd 250c 79bd
00000190: b157 ee3d b72e 3e3e 6881 47be b49d a33c
000001a0: 205f 043e f8a5 0bbe c275 1fbe ce9f b3bd
000001b0: 2a83 793e 32b7 b8bc 95b5 443e 7dd7 17be
000001c0: 6bb6 edbc b97e 813d 1eb1 b6bd d183 b5bc
000001d0: d5c0 643d 815d 703d 4d43 903d da47 b63d
000001e0: a666 6d3e 9cd3 3f3d 35b8 e73d cb84 943b
000001f0: e7f7 123c 2cfd f3bd 7c0a 383e a947 353e
00000200: 203b 783e 51a8 32bc ffc5 9f3d 6a18 8bbc
00000210: 299f 253c 25f4 91bd 3774 17be a6aa 0dbd
00000220: f6bd 30bb b167 9abc 301d f13d b435 3cbc
00000230: def2 f0bd 2eff 883e 0632 5fbc 12c0 e83d
0.14023778 0.031614665 -0.0056845536 -0.079987705 -0.06713726 0.052110944 -0.07771991 0.06868743
0.13692391 -0.2360115 -0.19300494 -0.3075587 -0.017334009 0.014446209 0.0027755008 0.031224225
0.019715203 -0.19958131 -0.019412637 0.0022760709 0.113844976 0.05928261 0.116611235 0.08303196
0.00363765 -0.019849993 0.09753025 0.09370873 0.043334696 -0.07487647 0.035456385 0.12388877
0.105799615 0.12178177 -0.10703189 -0.08834246 -0.020727059 -0.0007514443 -0.12607469 0.09428349
0.16892545 0.13975032 0.10390326 0.11519437 -0.073401086 -0.1160287 0.07451837 -0.11534432
-0.1691042 0.08593956 0.031059885 -0.010096284 -0.009519053 -0.10705248 -0.016002135 0.0031272557
0.15297039 0.0035936777 -0.09131898 -0.06902376 0.19265045 -0.0017027498 0.09749626 0.06068538
0.022794964 -0.11356336 -0.1490393 0.013616915 -0.055368923 0.34178483 0.35084322 0.15311334
-0.06380328 -0.038497813 -0.19269907 -0.23410945 0.083010584 -0.102894075 0.049028136 0.079905845
-0.072826594 0.044147424 0.12313076 -0.036237497 -0.07015061 -0.11581789 -0.012429259 -0.29204604
0.1274714 0.11391614 -0.11204649 0.016418578 -0.05244963 0.108259484 -0.050409015 -0.19361939
0.032024726 -0.008984505 -0.07012184 -0.060802598 0.116378196 0.18572508 -0.19482958 0.01997266
0.12926912 -0.13637531 -0.15572265 -0.08770715 0.24366441 -0.022548292 0.19209893 -0.14828296
-0.029017648 0.063229986 -0.08920501 -0.022157582 0.05584796 0.058682922 0.070440866 0.08900423
0.23183689 0.046832666 0.113144316 0.0045324317 0.008970237 -0.11913523 0.1797275 0.17703117
0.24241304 -0.010904388 0.07801437 -0.016979415 0.0101087475 -0.07126645 -0.14790426 -0.03458657
-0.0026968694 -0.018848272 0.11773145 -0.011487413 -0.11765073 0.26757187 -0.013622766 0.113647595

encode_modules.0.encode_modules.6.bn.weight f4 [4]
00000000: 8c5d 833f 904c 753f 957b 873f 4c23 853f
1.0262923 0.9581995 1.0584589 1.0401397

encode_modules.0.encode_modules.6.bn.bias f4 [4]
00000000: fea0 843c 6dec dfbb bbea 443d 9685 72bc
0.016190048 -0.006833604 0.04807542 -0.014802357

encode_modules.0.encode_modules.6.bn.running_mean f4 [4]
00000000: 066b 8f3d cee1 9c3e 8cc0 a2be be81 c33e
0.07002835 0.30641025 -0.31787527 0.38184923

encode_modules.0.encode_modules.6.bn.running_var f4 [4]
00000000: 02c2 493e cb33 e33e b63a 963e 50d3 af3e
0.19702914 0.44375452 0.29341668 0.34340906

encode_modules.0.decode_modules.0.conv.weight f4 [4, 8, 3, 3]
00000000: ce4b 5f3d 1528 0e3e d0e8 05bd 5115 8b3d
00000010: 0b5a a53d c2fe 24bd 9b16 cebc 30d1 5f3d
00000020: bfee dc3d 7955 073e 86a8 36bd 32c7 e73d
00000030: bc64 053e 0223 14bd 8bdb 9e3d 0b09 b6ba
00000040: 54fb be3d 0e64 663d 0f51 1e3e 3973 2a3e
00000050: 7427 7d3d 51fa 5d3e d215 9a3d a30d fa3d
00000060: b8ad ee3d 10d3 cf3d f512 963d 583a 483d
00000070: 55c7 87bd 23ed c5bd 6c01 e8bd 1156 3e3d
00000080: 3c80 e2bc 9e63 3c3c cbc7 57bd 76c9 87bd
00000090: 232d 87bd a65b 25be 9124 24be e11e cdbd
000000a0: 9b2b 9fbc 00b3 7abd 0724 dcbd 2402 26bd
000000b0: 535d 50bb e979 1ebe 2008 4c3a 8861 053e
000000c0: c623 e6bc 4287 c93c c61c 043c e6e5 d2bc
000000d0: c344 cc3d 0eb4 de3d 519d dfbd b186 80bd
000000e0: bc94 85bd 50bd aabc 8fea 6f3b 4c37 fbbd
000000f0: 446e 82bd 673e c4bd ed0a 11be ac93 79bb
00000100: 9df5 cabd 9bbf 5ebd 58db 823d 3827 1d3d
00000110: 3d16 8ebd 41df cfbd dc3e c43c 997b b53d
00000120: c866 d93d 15ee f8bd 1463 023d 1dc7 80bc
00000130: 37cf 00be 9680 6d3c 9dfb 3abe ca29 3d3d
00000140: d876 3e3b 1209 673d 2545 ce3d 2837 253e
00000150: 3992 88bd 8aca ddba 81db 7abd 7abf a4bd
00000160: a73b 4cbd 6d7e 9f3d cbff 58bd efae ad3d
00000170: efb6 693e 0959 333e 7541 d13d 2a0d 9d3d
00000180: 9f2a c53d 8b48 203d dd3f a0bd 0b46 0f3b
00000190: f711 a13d 494b b2bd 93e0 c0bd 39bd 8c3c
000001a0: 91e3 9d3b 386f 23be 59e7 bc3c 3dea 35bd
000001b0: 87d1 c6bc 80b8 f53c 6a48 1dbe b7a1 0fbd
000001c0: 48b5 653d 78ff 5cbe fb19 42be 19f9 64bd
000001d0: 5e0d bcbd c318 22bd 8044 49bd 1951 723c
000001e0: 8675 b1bc ec53 c43d 3568 78bd d545 72bd
000001f0: 577f f53d 0e89 533b 6b4e 51bc aed9 2abe
00000200: ba27 06be 5098 cb3d 0bc6 08be f8f4 cdbd
00000210: c666 3dbe 6d8b 23be 0415 58be 1dd1 db3c
00000220: 1ddd e8bd 9126 fdbc 6d4d 993d b385 1bbe
00000230: a399 9f3b a4f4 9ebd 6720 15bd f5ab 08bd
00000240: 4479 c93d 45cc 493d 5497 5e3e f753 65bd
00000250: b0bb 173e ce26 ac3d d308 c9bd 2c43 503d
00000260: 4fd0 0a3d 7466 1bbe d062 423d ac9e ecbd
00000270: 0745 593d 2d76 b03d 59be 0d3e 8405 933d
00000280: da3a db3d c9c3 273e 33ff 96bd 2fd8 a6bc
00000290: c389 d8bd 28c7 ddbb bef7 b9bd a356 623c
000002a0: 4d66 233d 7ed8 eebb f064 93bd 3de3 d73b
000002b0: aa8d 803d 70cd b63d 9117 293e b7a9 9d3c
000002c0: ea8a e43d 850c 6e3c be95 8dbd d6b7 273e
000002d0: 5def c13d 197e ae3d 4de3 4e3e 8c53 c7bc
000002e0: 831b 9f3d a918 153e fb6e 86bd 110a 9ebd
000002f0: 55c6 9d3d 6127 3d3d 3ad4 b93d b118 b1bc
00000300: 4918 453d 27fd 05bd adfc 4fbb 1be6 babd
00000310: a11c b7bc 1e77 823d 0926 2d3e deb9 223e
00000320: f5b8 133d 2e18 a83d b192 1b3e 65ad f3bd
00000330: 19c7 76bd 287a 683d d2aa 8a3c 99a7 df3d
00000340: a484 9fbd faf0 9cbd 4d53 3a3c 3696 bbbd
00000350: 66d9 523c 449c c43d c98f c43d b071 913d
00000360: f630 debd 4e20 3f3d 00fb 23bd 4344 e73b
00000370: c899 d0bc 8dcf d03d 1aa9 173d d3d9 65bd
00000380: 81cc 053d 332b 0e3e 81fe df3d 851c 393d
00000390: bbbf 87bd 7171 953d 3b02 08bd bad9 98bd
000003a0: f730 3d3c b3f5 97bd b9ca 7d3d 7d14 433e
000003b0: a033 213d ad4b 83bd 9177 063e 10a5 3a3d
000003c0: aca3 ffbc 2f42 c63d cedb fcbc b326 e2bd
000003d0: 13d3 b2bd 07d7 87bd 2c83 ffbd 293a 92bd
000003e0: aa72 09be b363 2abe a11a d0bd 11d7 12be
000003f0: 6ecb 2fbe 4c03 4ebe e638 91bc 09ba 323d
0.054515652 0.13882478 -0.03269273 0.06791175 0.08073815 -0.04028202 -0.025157264 0.054642856
0.10787725 0.13216199 -0.04459431 0.1131729 0.13026708 -0.0361662 0.07756718 -0.0013888193
0.09325281 0.056247763 0.15460609 0.16645516 0.061805204 0.2167752 0.07523693 0.12209632
0.11654228 0.10147679 0.073278345 0.048883766 -0.066298164 -0.09664371 -0.11328396 0.046468798
-0.027649038 0.01149836 -0.05268077 -0.066302225 -0.06600406 -0.16148242 -0.16029574 -0.10015655
-0.019429972 -0.061205864 -0.10749059 -0.040529385 -0.0031793907 -0.15476193 0.0007783193 0.13025486
-0.02809323 0.024600629 0.008063501 -0.02574439 0.09974053 0.108741865 -0.109186776 -0.0627569
-0.065225095 -0.020842224 0.0036608314 -0.122664064 -0.06368688 -0.09582215 -0.14164324 -0.0038082404
-0.09910128 -0.054381948 0.06389493 0.03836748 -0.06937835 -0.10150004 0.023955755 0.08861465
0.10615307 -0.121547855 0.03183277 -0.015719945 -0.12579046 0.014495989 -0.18260045 0.04618243
0.0029062536 0.056405134 0.10071782 0.16134322 -0.06668515 -0.0016921323 -0.06124449 -0.08044334
-0.049861576 0.07787786 -0.05297832 0.084806316 0.2282369 0.17514433 0.10217563 0.076685265
0.0962727 0.039131682 -0.07824681 0.0021861817 0.07864755 -0.08705766 -0.09417834 0.017180072
0.004818388 -0.15960395 0.023059534 -0.04441284 -0.024269832 0.029995203 -0.15359655 -0.035066333
0.056081086 -0.21581829 -0.18955223 -0.05590162 -0.09182237 -0.039574396 -0.049137592 0.014789843
-0.021662485 0.09586319 -0.060646255 -0.05914863 0.11987179 0.0032277736 -0.012775044 -0.166846
-0.13101092 0.09941161 -0.13356797 -0.1005649 -0.18496236 -0.15971155 -0.21101767 0.026833111
-0.11370299 -0.030902179 0.07485471 -0.15187721 0.00487061 -0.07761505 -0.036407854 -0.033367116
0.09837583 0.049267072 0.21737415 -0.05598828 0.14817691 0.08405839 -0.09816136 0.05084531
0.033890065 -0.15175802 0.047457516 -0.11553702 0.053044345 0.0861629 0.13842143 0.071787864
0.107045844 0.1638328 -0.07372894 -0.020366756 -0.10573151 -0.006768126 -0.09080456 0.013814601
0.039892484 -0.0072889915 -0.07196987 0.006588368 0.0627702 0.08925903 0.16512896 0.019245965
0.11159308 0.014529352 -0.06913327 0.16378722 0.09469483 0.08520145 0.20203896 -0.02433183
0.07768919 0.14560188 -0.065641366 -0.07716764 0.077038445 0.046180133 0.09073682 -0.02161822
0.048118863 -0.032712128 -0.00317363 -0.091259204 -0.022352519 0.06370376 0.1690904 0.15891215
0.03606506 0.08207737 0.15192677 -0.11898307 -0.060248468 0.056757122 0.016927157 0.109206386
-0.07788971 -0.0766315 0.0113723995 -0.0915951 0.012869215 0.09600118 0.09597737 0.07101762
-0.10849182 0.046661668 -0.040034294 0.007057698 -0.025463954 0.10195837 0.037026502 -0.056115936
0.032665733 0.13883667 0.10937215 0.045193214 -0.066283666 0.07297028 -0.033205252 -0.07463403
0.011547319 -0.0741991 0.06196091 0.19050784 0.039355874 -0.064109184 0.13131548 0.045567572
-0.031205975 0.09680592 -0.03086653 -0.110425375 -0.087316655 -0.0663281 -0.12476191 -0.071399994
-0.13422647 -0.16639595 -0.10161329 -0.14339854 -0.17167446 -0.20118445 -0.017727327 0.04363445

encode_modules.0.decode_modules.0.bn.weight f4 [4]
00000000: 04df 7a3f 12d1 7b3f aa6f 7f3f 1651 873f
0.97996545 0.9836589 0.9977976 1.057162

encode_modules.0.decode_modules.0.bn.bias f4 [4]
00000000: d174 62bd 209b 633b 8552 c13c cb51 2d3e
-0.055287186 0.0034729913 0.023598919 0.16925733

encode_modules.0.decode_modules.0.bn.running_mean f4 [4]
00000000: 660a d93d 3b00 0abf fde6 433f 5443 27be
0.105976865 -0.539066 0.76524335 -0.16334277

encode_modules.0.decode_modules.0.bn.running_var f4 [4]
00000000: 7ff3 3c3f 4e03 b53f 7448 cc3f 0001 693f
0.73809046 1.4141634 1.5959611 0.9101715

encode_modules.0.decode_modules.1.conv.weight f4 [4, 8, 3, 3]
00000000: 1485 cdbc 8481 033c 2599 edbd 0955 03bd
00000010: 43cb cd3d c403 bb3d e676 b23d 326c 2bbd
00000020: 3b4c 073e fd09 61bd c0ab 1b3d 0cd6 17be
00000030: e361 4f3d 15cf ccbc e732 173d 7031 003d
00000040: eb27 1dbd 51ee 0abd 50de a63d a5c3 04bd
00000050: ac9c d03b 1e90 d6bb d2f4 893d f730 cc3c
00000060: 5ab2 2a3e aafa c1bc af24 8e3a f0c3 343b
00000070: 2414 cd3c ac7b 8b3d 01e5 8c3d 92eb 14be
00000080: 2b77 83bd 6617 dfbd 879c bbbb c750 763b
00000090: 278b 053e a4d3 933d e4a1 143c fc80 32bd
000000a0: c082 06be 7845 163e d8be a13c f37d a43d
000000b0: 4e28 943d 3500 52bd 050a b63d dc4b e2bd
000000c0: 9f6a f13b 1c7c 3ebd 31c7 a43d 0487 533d
000000d0: 7fd0 bd3b a147 9b3d 9763 883d ca61 b93d
000000e0: fb6b fe3d aea3 8ebd 872e 9d3d f681 583e
000000f0: 4575 b5bd 255a b43d 0104 333e 3fd9 babd
00000100: aded c7bd 7d30 373d 6396 bebd 2a37 1a3e
00000110: a236 f63c 813e aa3c e6ed 8b3d 573f 143e
00000120: 11ed e83d 7be0 74bc 7ee6 89bc 4a90 533e
00000130: 7918 eb3c eae7 c03c 6ce9 09bc fde7 313e
00000140: 313f 0d3d 57d6 373e 6a3e 3dbc 2a35 b6bb
00000150: 63d0 323e 4306 8b3b 534c ee3d 9ad8 a03c
00000160: c6fb e63d b373 32bd b0d7 4dbc 9a8e d5bd
00000170: d607 a1bb 0285 b0bc 7f37 473c 688f cc3d
00000180: dd68 8abb 7223 90bd 4be2 853c d3b1 da3d
00000190: 851f 083e 7e53 603e 88d0 013d f4c6 9dbd
000001a0: c8f2 333e d54c 20be 64bd 90bc f571 5f3b
000001b0: 7e97 a53d 457a e53d 75f6 d3bd ac2c 763c
000001c0: 1855 4abd 4d3c 56bd 8699 34bc 9cb0 a2bd
000001d0: b745 fcbc a74e 17bd de9a 993d 038f ea3d
000001e0: 7db5 103e a5bb 96bc 03e9 2abd 2c2c d23d
000001f0: da87 a03d 2939 afbd 0a0c 933b 0450 afbd
00000200: 6052 13be 5853 bc3d 626d aa3d b41d b03d
00000210: a736 473c 9fd7 623c 2b35 5c3d 8bd6 94bd
00000220: e336 94be 7a9b 29bd c992 02be 9cd0 97bd
00000230: 46d2 033d 95bb 1cbd bdb2 0a3e ab78 823d
00000240: f0d7 cb3d dd14 2abd c43e ab3d 5bdd d13a
00000250: b653 9dbb 53d2 cb3d 0913 8b3d e312 22bd
00000260: 990a 93bd 4638 80bc 2629 c03d 2a92 8fbd
00000270: 4597 9f3d 926a d83d 6f53 f43d ac47 b0bd
00000280: 6270 d93d 9f39 99bd 857b b73d 4957 343d
00000290: 22c4 d43d 5233 f8bc 4eea 733d c803 863d
000002a0: e7e7 a93d 278d 543d 64da fcbd 41e6 44be
000002b0: 9f33 533d 5c28 273b dd21 7fbd d00f e43d
000002c0: 5ab7 bf3d 3f7c 8abd 4387 bf3d 92b6 23bd
000002d0: c0aa 85bd ad20 f0bd 411c 0bbe 9a3a fd3b
000002e0: a8e1 dcbc 799d 8ebc e94d 1cbe 4f5e c7bd
000002f0: d7db ddbc 1ca4 a93c 6050 abbd 01a3 5ebd
00000300: 1d89 3f3e 64ea e33c 52bb d43d 660a 94bd
00000310: e13e d33d 8266 b13d 0cc5 6ebe e278 f7bc
00000320: b9cb f13c 4f29 25be 4a8e 0cbe 660e fc3d
00000330: 5eed b8bd 81f1 113d fe4b 59bd 8fe2 893d
00000340: 6fb8 5fbe 829f 7cbe 627f 883d 7a30 023e
00000350: 9bf6 82bd f642 0dbd e808 433d 9849 07bc
00000360: 8cf1 21be 7b70 3bbe ed63 26bd 2a8c 05be
00000370: 5c8a e5bd aa71 883d 9310 bfbd 4c8b 8c3d
00000380: 77ce d0bc db95 453b ef99 26be 4f48 ffbd
00000390: 7d38 2ebd 5e4b 113c a502 2cbc 93b2 52bc
000003a0: 3127 803d aaab d4bd b295 bc3c d408 3c3e
000003b0: 2682 253e f416 c43d 24bd 8d3d c56b a63c
000003c0: f272 113d 6243 54bc 0b6d 113e 8199 66be
000003d0: 3231 4bbe 2c0d ecbd 1a0a 9abd 533a 6bbd
000003e0: 3504 38bd d7af 1c3d f4d2 92bd cf38 63bd
000003f0: 00be 123e d728 a93d f213 523b 2b08 063e
-0.02508787 0.008026484 -0.116014756 -0.032063518 0.10048535 0.091315776 0.08714084 -0.04185123
0.13212673 -0.054941166 0.03800559 -0.14827746 0.05063046 -0.025001088 0.03691378 0.031297147
-0.038368147 -0.033918682 0.081478715 -0.032413144 0.006366333 -0.006547942 0.06736149 0.024925692
0.16669598 -0.023679096 0.0010844673 0.0027582608 0.025034018 0.06810698 0.068796165 -0.14542988
-0.06419214 -0.10893135 -0.0057254466 0.0037584768 0.13041364 0.072181016 0.009071801 -0.04358004
-0.13135815 0.14674938 0.019744322 0.080318354 0.0723425 -0.05126973 0.0888863 -0.11049625
0.0073674466 -0.04650508 0.08045805 0.051642433 0.005792677 0.075820215 0.0665962 0.09051855
0.124229394 -0.06964813 0.0767489 0.21143326 -0.08860258 0.08806256 0.17481996 -0.09123468
-0.0976213 0.044723976 -0.09306028 0.15060106 0.030055348 0.020781757 0.06832485 0.14477287
0.11373342 -0.014946098 -0.01683354 0.2066051 0.028698193 0.023548085 -0.0084174685 0.17373653
0.034484092 0.17952858 -0.011550525 -0.005560537 0.17462306 0.00424269 0.116356514 0.019634534
0.11278491 -0.04356737 -0.012563631 -0.1042759 -0.004914264 -0.021547798 0.012159227 0.0998829
-0.0042239265 -0.07038011 0.016343256 0.106784485 0.13293274 0.2190685 0.03169301 -0.07703963
0.17573082 -0.15654309 -0.017668433 0.0034095023 0.080855355 0.11204962 -0.10349742 0.015025299
-0.049397558 -0.0523036 -0.011022931 -0.07943842 -0.030794961 -0.036940243 0.07500242 0.114530586
0.14131732 -0.018400023 -0.041726124 0.10262331 0.07838412 -0.08555824 0.004487519 -0.08560184
-0.14386892 0.09195584 0.08321644 0.085994154 0.012159026 0.013845353 0.053761642 -0.07267483
-0.28948125 -0.04140804 -0.12751307 -0.07412836 0.032182954 -0.03826483 0.13544746 0.06370672
0.09953296 -0.041523803 0.08361581 0.0016011404 -0.004801239 0.099522255 0.0679074 -0.039568793
-0.07179756 -0.015651833 0.093828484 -0.070103005 0.07792524 0.10567202 0.11929976 -0.0860742
0.106171384 -0.074816935 0.08959106 0.044028554 0.10388972 -0.030297909 0.059549622 0.0654369
0.08296185 0.051892426 -0.12346342 -0.1922846 0.0515629 0.0025506234 -0.062288154 0.111358285
0.093611434 -0.06761979 0.09351971 -0.039969034 -0.065267086 -0.117249824 -0.13584997 0.007727933
-0.02696307 -0.017409073 -0.15264095 -0.09734785 -0.027082367 0.020708136 -0.0836494 -0.05435467
0.18704648 0.027821727 0.10387291 -0.07228546 0.103147276 0.0866213 -0.23317355 -0.030209009
0.029516088 -0.16129039 -0.13726154 0.12307434 -0.09029649 0.035630707 -0.053050987 0.06732666
-0.218477 -0.24670222 0.06664921 0.12713805 -0.063946925 -0.034487687 0.047615916 -0.008257292
-0.15814799 -0.18304627 -0.04062264 -0.1304175 -0.112080306 0.06662305 -0.09329333 0.06862506
-0.025489075 0.0030149135 -0.16269659 -0.12464964 -0.04253434 0.008868067 -0.010498677 -0.012859958
0.06257475 -0.10384305 0.023020599 0.18362743 0.16162929 0.095746905 0.06920841 0.02031506
0.03551001 -0.012955518 0.14201753 -0.22519495 -0.19842985 -0.1152595 -0.07521458 -0.05742867
-0.044925887 0.03825363 -0.07169142 -0.0554741 0.14330292 0.08259743 0.0032055345 0.13089053

encode_modules.0.decode_modules.1.bn.weight f4 [4]
00000000: 0377 583f fd6e 813f 0b79 893f 6460 863f
0.845566 1.0111996 1.0740064 1.0498166

encode_modules.0.decode_modules.1.bn.bias f4 [4]
00000000: fd41 d2bc 1cdc c73d 1a24 103d d5ac 6d3d
-0.025666231 0.097587794 0.03519068 0.058026154

encode_modules.0.decode_modules.1.bn.running_mean f4 [4]
00000000: c729 f13e 9408 0d3f 290f 883b 8824 95be
0.47102186 0.55091214 0.004152198 -0.29129434

encode_modules.0.decode_modules.1.bn.running_var f4 [4]
00000000: 97d9 493f 52b5 0f3f cc42 143f 6397 f93f
0.7884764 0.5613605 0.57914424 1.9499325
